…
:"stream","name":"stdout","text":["Model: \"model\"\n","__________________________________________________________________________________________________\n"," Layer (type)                Output Shape                 Param #   Connected to                  \n","==================================================================================================\n"," input_1 (InputLayer)        [(None, 224, 224, 3)]        0         []                            \n","                                                                                                  \n"," conv2d (Conv2D)             (None, 111, 111, 32)         864       ['input_1[0][0]']             \n","                                                                                                  \n"," batch_normalization (Batch  (None, 111, 111, 32)         96        ['conv2d[0][0]']              \n"," Normalization)                                                                                   \n","                                                                                                  \n"," activation (Activation)     (None, 111, 111, 32)         0         ['batch_normalization[0][0]'] \n","                                                                                                  \n"," conv2d_1 (Conv2D)           (None, 109, 109, 32)         9216      ['activation[0][0]']          \n","                                                                                                  \n"," batch_normalization_1 (Bat  (None, 109, 109, 32)         96        ['conv2d_1[0][0]']            \n"," chNormalization)                                                                                 \n","                                                                                                  \n"," activation_1 (Activation)   (None, 109, 109, 32)         0         ['batch_normalization_1[0][0]'\n","                                                                    ]                             \n","                                                                                                  \n"," conv2d_2 (Conv2D)           (None, 109, 109, 64)         18432     ['activation_1[0][0]']        \n","                                                                                                  \n"," batch_normalization_2 (Bat  (None, 109, 109, 64)         192       ['conv2d_2[0][0]']            \n"," chNormalization)                                                                                 \n","                                                                                                  \n"," activation_2 (Activation)   (None, 109, 109, 64)         0         ['batch_normalization_2[0][0]'\n","                                                                    ]                             \n","                                                                                                  \n"," max_pooling2d (MaxPooling2  (None, 54, 54, 64)           0         ['activation_2[0][0]']        \n"," D)                                                                                               \n","                                                                                                  \n"," conv2d_3 (Conv2D)           (None, 54, 54, 80)           5120      ['max_pooling2d[0][0]']       \n","                                                                                                  \n"," batch_normalization_3 (Bat  (None, 54, 54, 80)           240       ['conv2d_3[0][0]']            \n"," chNormalization)                                                                                 \n","                                                                                                  \n"," activation_3 (Activation)   (None, 54, 54, 80)           0         ['batch_normalization_3[0][0]'\n","                                                                    ]                             \n","                                                                                                  \n"," conv2d_4 (Conv2D)           (None, 52, 52, 192)          138240    ['activation_3[0][0]']        \n","                                                                                                  \n"," batch_normalization_4 (Bat  (None, 52, 52, 192)          576       ['conv2d_4[0][0]']            \n"," chNormalization)                                                                                 \n","                                                                                                  \n"," activation_4 (Activation)   (None, 52, 52, 192)          0         ['batch_normalization_4[0][0]'\n","                                                                    ]                             \n","                                                                                                  \n"," max_pooling2d_1 (MaxPoolin  (None, 25, 25, 192)          0         ['activation_4[0][0]']        \n"," g2D)                                                                                             \n","                                                                                                  \n"," conv2d_8 (Conv2D)           (None, 25, 25, 64)           12288     ['max_pooling2d_1[0][0]']     \n","                                                                                                  \n"," batch_normalization_8 (Bat  (None, 25, 25, 64)           192       ['conv2d_8[0][0]']            \n"," chNormalization)                                                                                 \n","                                                                                                  \n"," activation_8 (Activation)   (None, 25, 25, 64)           0         ['batch_normalization_8[0][0]'\n","                                                                    ]                             \n","                                                                                                  \n"," conv2d_6 (Conv2D)           (None, 25, 25, 48)           9216      ['max_pooling2d_1[0][0]']     \n","                                                                                                  \n"," conv2d_9 (Conv2D)           (None, 25, 25, 96)           55296     ['activation_8[0][0]']        \n","                                                                                                  \n"," batch_normalization_6 (Bat  (None, 25, 25, 48)           144       ['conv2d_6[0][0]']            \n"," chNormalization)                                                                                 \n","                                                                                                  \n"," batch_normalization_9 (Bat  (None, 25, 25, 96)           288       ['conv2d_9[0][0]']            \n"," chNormalization)                                                                                 \n","                                                                                                  \n"," activation_6 (Activation)   (None, 25, 25, 48)           0         ['batch_normalization_6[0][0]'\n","                                                                    ]                             \n","                                                                                                  \n"," activation_9 (Activation)   (None, 25, 25, 96)           0         ['batch_normalization_9[0][0]'\n","                                                                    ]                             \n","                                                                                                  \n"," average_pooling2d (Average  (None, 25, 25, 192)          0         ['max_pooling2d_1[0][0]']     \n"," Pooling2D)                                                                                       \n","                                                                                                  \n"," conv2d_5 (Conv2D)           (None, 25, 25, 96)           18432     ['max_pooling2d_1[0][0]']     \n","                                                                                                  \n"," conv2d_7 (Conv2D)           (None, 25, 25, 64)           76800     ['activation_6[0][0]']        \n","                                                                                                  \n"," conv2d_10 (Conv2D)          (None, 25, 25, 96)           82944     ['activation_9[0][0]']        \n","                                                                                                  \n"," conv2d_11 (Conv2D)          (None, 25, 25, 64)           12288     ['average_pooling2d[0][0]']   \n","                                                                                                  \n"," batch_normalization_5 (Bat  (None, 25, 25, 96)           288       ['conv2d_5[0][0]']            \n"," chNormalization)                                                                                 \n","                                                                                                  \n"," batch_normalization_7 (Bat  (None, 25, 25, 64)           192       ['conv2d_7[0][0]']            \n"," chNormalization)                                                                                 \n","                                                                                                  \n"," batch_normalization_10 (Ba  (None, 25, 25, 96)           288       ['conv2d_10[0][0]']           \n"," tchNormalization)                                                                                \n","                                                                                                  \n"," batch_normalization_11 (Ba  (None, 25, 25, 64)           192       ['conv2d_11[0][0]']           \n"," tchNormalization)                                                                                \n","                                                                                                  \n"," activation_5 (Activation)   (None, 25, 25, 96)           0         ['batch_normalization_5[0][0]'\n","                                                                    ]                             \n","                                                                                                  \n"," activation_7 (Activation)   (None, 25, 25, 64)           0         ['batch_normalization_7[0][0]'\n","                                                                    ]                             \n","                                                                                                  \n"," activation_10 (Activation)  (None, 25, 25, 96)           0         ['batch_normalization_10[0][0]\n","                                                                    ']                            \n","                                                                                                  \n"," activation_11 (Activation)  (None, 25, 25, 64)           0         ['batch_normalization_11[0][0]\n","                                                                    ']                            \n","                                                                                                  \n"," mixed_5b (Concatenate)      (None, 25, 25, 320)          0         ['activation_5[0][0]',        \n","                                                                     'activation_7[0][0]',        \n","                                                                     'activation_10[0][0]',       \n","                                                                     'activation_11[0][0]']       \n","                                                                                                  \n"," conv2d_15 (Conv2D)          (None, 25, 25, 32)           10240     ['mixed_5b[0][0]']            \n","                                                                                                  \n"," batch_normalization_15 (Ba  (None, 25, 25, 32)           96        ['conv2d_15[0][0]']           \n"," tchNormalization)                                                                                \n","                                                                                                  \n"," activation_15 (Activation)  (None, 25, 25, 32)           0         ['batch_normalization_15[0][0]\n","                                                                    ']                            \n","                                                                                                  \n"," conv2d_13 (Conv2D)          (None, 25, 25, 32)           10240     ['mixed_5b[0][0]']            \n","                                                                                                  \n"," conv2d_16 (Conv2D)          (None, 25, 25, 48)           13824     ['activation_15[0][0]']       \n","                                                                                                  \n"," batch_normalization_13 (Ba  (None, 25, 25, 32)           96        ['conv2d_13[0][0]']           \n"," tchNormalization)                                                                                \n","                                                                                                  \n"," batch_normalization_16 (Ba  (None, 25, 25, 48)           144       ['conv2d_16[0][0]']           \n"," tchNormalization)                                                                                \n","                                                                                                  \n"," activation_13 (Activation)  (None, 25, 25, 32)           0         ['batch_normalization_13[0][0]\n","                                                                    ']                            \n","                                                                                                  \n"," activation_16 (Activation)  (None, 25, 25, 48)           0         ['batch_normalization_16[0][0]\n","                                                                    ']                            \n","                                                                                                  \n"," conv2d_12 (Conv2D)          (None, 25, 25, 32)           10240     ['mixed_5b[0][0]']            \n","                                                                                                  \n"," conv2d_14 (Conv2D)          (None, 25, 25, 32)           9216      ['activation_13[0][0]']       \n","                                                                                                  \n"," conv2d_17 (Conv2D)          (None, 25, 25, 64)           27648     ['activation_16[0][0]']       \n","                                                                                                  \n"," batch_normalization_12 (Ba  (None, 25, 25, 32)           96        ['conv2d_12[0][0]']           \n"," tchNormalization)                                                                                \n","                                                                                                  \n"," batch_normalization_14 (Ba  (None, 25, 25, 32)           96        ['conv2d_14[0][0]']           \n"," tchNormalization)                                                                                \n","                                                                                                  \n"," batch_normalization_17 (Ba  (None, 25, 25, 64)           192       ['conv2d_17[0][0]']           \n"," tchNormalization)                                                                                \n","                                                                                                  \n"," activation_12 (Activation)  (None, 25, 25, 32)           0         ['batch_normalization_12[0][0]\n","                                                                    ']                            \n","                                                                                                  \n"," activation_14 (Activation)  (None, 25, 25, 32)           0         ['batch_normalization_14[0][0]\n","                                                                    ']                            \n","                                                                                                  \n"," activation_17 (Activation)  (None, 25, 25, 64)           0         ['batch_normalization_17[0][0]\n","                                                                    ']                            \n","                                                                                                  \n"," block35_1_mixed (Concatena  (None, 25, 25, 128)          0         ['activation_12[0][0]',       \n"," te)                                                                 'activation_14[0][0]',       \n","                                                                     'activation_17[0][0]']       \n","                                                                                                  \n"," block35_1_conv (Conv2D)     (None, 25, 25, 320)          41280     ['block35_1_mixed[0][0]']     \n","                                                                                                  \n"," custom_scale_layer (Custom  (None, 25, 25, 320)          0         ['mixed_5b[0][0]',            \n"," ScaleLayer)                                                         'block35_1_conv[0][0]']      \n","                                                                                                  \n"," block35_1_ac (Activation)   (None, 25, 25, 320)          0         ['custom_scale_layer[0][0]']  \n","                                                                                                  \n"," conv2d_21 (Conv2D)          (None, 25, 25, 32)           10240     ['block35_1_ac[0][0]']        \n","                                                                                                  \n"," batch_normalization_21 (Ba  (None, 25, 25, 32)           96        ['conv2d_21[0][0]']           \n"," tchNormalization)                                                                                \n","                                                                                                  \n"," activation_21 (Activation)  (None, 25, 25, 32)           0         ['batch_normalization_21[0][0]\n","                                                                    ']                            \n","                                                                                                  \n"," conv2d_19 (Conv2D)          (None, 25, 25, 32)           10240     ['block35_1_ac[0][0]']        \n","                                                                                                  \n"," conv2d_22 (Conv2D)          (None, 25, 25, 48)           13824     ['activation_21[0][0]']       \n","                                                                                                  \n"," batch_normalization_19 (Ba  (None, 25, 25, 32)           96        ['conv2d_19[0][0]']           \n"," tchNormalization)                                                                                \n","                                                                                                  \n"," batch_normalization_22 (Ba  (None, 25, 25, 48)           144       ['conv2d_22[0][0]']           \n"," tchNormalization)                                                                                \n","                                                                                                  \n"," activation_19 (Activation)  (None, 25, 25, 32)           0         ['batch_normalization_19[0][0]\n","                                                                    ']                            \n","                                                                                                  \n"," activation_22 (Activation)  (None, 25, 25, 48)           0         ['batch_normalization_22[0][0]\n","                                                                    ']                            \n","                                                                                                  \n"," conv2d_18 (Conv2D)          (None, 25, 25, 32)           10240     ['block35_1_ac[0][0]']        \n","                                                                                                  \n"," conv2d_20 (Conv2D)          (None, 25, 25, 32)           9216      ['activation_19[0][0]']       \n","                                                                                                  \n"," conv2d_23 (Conv2D)          (None, 25, 25, 64)           27648     ['activation_22[0][0]']       \n","                                                                                                  \n"," batch_normalization_18 (Ba  (None, 25, 25, 32)           96        ['conv2d_18[0][0]']           \n"," tchNormalization)                                                                                \n","                                                                                                  \n"," batch_normalization_20 (Ba  (None, 25, 25, 32)           96        ['conv2d_20[0][0]']           \n"," tchNormalization)                                                                                \n","                                                                                                  \n"," batch_normalization_23 (Ba  (None, 25, 25, 64)           192       ['conv2d_23[0][0]']           \n"," tchNormalization)                                                                                \n","                                                                                                  \n"," activation_18 (Activation)  (None, 25, 25, 32)           0         ['batch_normalization_18[0][0]\n","                                                                    ']                            \n","                                                                                                  \n"," activation_20 (Activation)  (None, 25, 25, 32)           0         ['batch_normalization_20[0][0]\n","                                                                    ']                            \n","                                                                                                  \n"," activation_23 (Activation)  (None, 25, 25, 64)           0         ['batch_normalization_23[0][0]\n","                                                                    ']                            \n","                                                                                                  \n"," block35_2_mixed (Concatena  (None, 25, 25, 128)          0         ['activation_18[0][0]',       \n"," te)                                                                 'activation_20[0][0]',       \n","                                                                     'activation_23[0][0]']       \n","                                                                                                  \n"," block35_2_conv (Conv2D)     (None, 25, 25, 320)          41280     ['block35_2_mixed[0][0]']     \n","                                                                                                  \n"," custom_scale_layer_1 (Cust  (None, 25, 25, 320)          0         ['block35_1_ac[0][0]',        \n"," omScaleLayer)                                                       'block35_2_conv[0][0]']      \n","                                                                                                  \n"," block35_2_ac (Activation)   (None, 25, 25, 320)          0         ['custom_scale_layer_1[0][0]']\n","                                                                                                  \n"," conv2d_27 (Conv2D)          (None, 25, 25, 32)           10240     ['block35_2_ac[0][0]']        \n","                                                                                                  \n"," batch_normalization_27 (Ba  (None, 25, 25, 32)           96        ['conv2d_27[0][0]']           \n"," tchNormalization)                                                                                \n","                                                                                                  \n"," activation_27 (Activation)  (None, 25, 25, 32)           0         ['batch_normalization_27[0][0]\n","                                                                    ']                            \n","                                                                                                  \n"," conv2d_25 (Conv2D)          (None, 25, 25, 32)           10240     ['block35_2_ac[0][0]']        \n","                                                                                                  \n"," conv2d_28 (Conv2D)          (None, 25, 25, 48)           13824     ['activation_27[0][0]']       \n","                                                                                                  \n"," batch_normalization_25 (Ba  (None, 25, 25, 32)           96        ['conv2d_25[0][0]']           \n"," tchNormalization)                                                                                \n","                                                                                                  \n"," batch_normalization_28 (Ba  (None, 25, 25, 48)           144       ['conv2d_28[0][0]']           \n"," tchNormalization)                                                                                \n","                                                                                                  \n"," activation_25 (Activation)  (None, 25, 25, 32)           0         ['batch_normalization_25[0][0]\n","                                                                    ']                            \n","                                                                                                  \n"," activation_28 (Activation)  (None, 25, 25, 48)           0         ['batch_normalization_28[0][0]\n","                                                                    ']                            \n","                                                                                                  \n"," conv2d_24 (Conv2D)          (None, 25, 25, 32)           10240     ['block35_2_ac[0][0]']        \n","                                                                                                  \n"," conv2d_26 (Conv2D)          (None, 25, 25, 32)           9216      ['activation_25[0][0]']       \n","                                                                                                  \n"," conv2d_29 (Conv2D)          (None, 25, 25, 64)           27648     ['activation_28[0][0]']       \n","                                                                                                  \n"," batch_normalization_24 (Ba  (None, 25, 25, 32)           96        ['conv2d_24[0][0]']           \n"," tchNormalization)                                                                                \n","                                                                                                  \n"," batch_normalization_26 (Ba  (None, 25, 25, 32)           96        ['conv2d_26[0][0]']           \n"," tchNormalization)                                                                                \n","                                                                                                  \n"," batch_normalization_29 (Ba  (None, 25, 25, 64)           192       ['conv2d_29[0][0]']           \n"," tchNormalization)                                                                                \n","                                                                                                  \n"," activation_24 (Activation)  (None, 25, 25, 32)           0         ['batch_normalization_24[0][0]\n","                                                                    ']                            \n","                                                                                                  \n"," activation_26 (Activation)  (None, 25, 25, 32)           0         ['batch_normalization_26[0][0]\n","                                                                    ']                            \n","                                                                                                  \n"," activation_29 (Activation)  (None, 25, 25, 64)           0         ['batch_normalization_29[0][0]\n","                                                                    ']                            \n","                                                                                                  \n"," block35_3_mixed (Concatena  (None, 25, 25, 128)          0         ['activation_24[0][0]',       \n"," te)                                                                 'activation_26[0][0]',       \n","                                                                     'activation_29[0][0]']       \n","                                                                                                  \n"," block35_3_conv (Conv2D)     (None, 25, 25, 320)          41280     ['block35_3_mixed[0][0]']     \n","                                                                                                  \n"," custom_scale_layer_2 (Cust  (None, 25, 25, 320)          0         ['block35_2_ac[0][0]',        \n"," omScaleLayer)                                                       'block35_3_conv[0][0]']      \n","                                                                                                  \n"," block35_3_ac (Activation)   (None, 25, 25, 320)          0         ['custom_scale_layer_2[0][0]']\n","                                                                                                  \n"," conv2d_33 (Conv2D)          (None, 25, 25, 32)           10240     ['block35_3_ac[0][0]']        \n","                                                                                                  \n"," batch_normalization_33 (Ba  (None, 25, 25, 32)           96        ['conv2d_33[0][0]']           \n"," tchNormalization)                                                                                \n","                                                                                                  \n"," activation_33 (Activation)  (None, 25, 25, 32)           0         ['batch_normalization_33[0][0]\n","                                                                    ']                            \n","                                                                                                  \n"," conv2d_31 (Conv2D)          (None, 25, 25, 32)           10240     ['block35_3_ac[0][0]']        \n","                                                                                                  \n"," conv2d_34 (Conv2D)          (None, 25, 25, 48)           13824     ['activation_33[0][0]']       \n","                                                                                                  \n"," batch_normalization_31 (Ba  (None, 25, 25, 32)           96        ['conv2d_31[0][0]']           \n"," tchNormalization)                                                                                \n","                                                                                                  \n"," batch_normalization_34 (Ba  (None, 25, 25, 48)           144       ['conv2d_34[0][0]']           \n"," tchNormalization)                                                                                \n","                                                                                                  \n"," activation_31 (Activation)  (None, 25, 25, 32)           0         ['batch_normalization_31[0][0]\n","                                                                    ']                            \n","                                                                                                  \n"," activation_34 (Activation)  (None, 25, 25, 48)           0         ['batch_normalization_34[0][0]\n","                                                                    ']                            \n","                                                                                                  \n"," conv2d_30 (Conv2D)          (None, 25, 25, 32)           10240     ['block35_3_ac[0][0]']        \n","                                                                                                  \n"," conv2d_32 (Conv2D)          (None, 25, 25, 32)           9216      ['activation_31[0][0]']       \n","                                                                                                  \n"," conv2d_35 (Conv2D)          (None, 25, 25, 64)           27648     ['activation_34[0][0]']       \n","                                                                                                  \n"," batch_normalization_30 (Ba  (None, 25, 25, 32)           96        ['conv2d_30[0][0]']           \n"," tchNormalization)                                                                                \n","                                                                                                  \n"," batch_normalization_32 (Ba  (None, 25, 25, 32)           96        ['conv2d_32[0][0]']           \n"," tchNormalization)                                                                                \n","                                                                                                  \n"," batch_normalization_35 (Ba  (None, 25, 25, 64)           192       ['conv2d_35[0][0]']           \n"," tchNormalization)                                                                                \n","                                                                                                  \n"," activation_30 (Activation)  (None, 25, 25, 32)           0         ['batch_normalization_30[0][0]\n","                                                                    ']                            \n","                                                                                                  \n"," activation_32 (Activation)  (None, 25, 25, 32)           0         ['batch_normalization_32[0][0]\n","                                                                    ']                            \n","                                                                                                  \n"," activation_35 (Activation)  (None, 25, 25, 64)           0         ['batch_normalization_35[0][0]\n","                                                                    ']                            \n","                                                                                                  \n"," block35_4_mixed (Concatena  (None, 25, 25, 128)          0         ['activation_30[0][0]',       \n"," te)                                                                 'activation_32[0][0]',       \n","                                                                     'activation_35[0][0]']       \n","                                                                                                  \n"," block35_4_conv (Conv2D)     (None, 25, 25, 320)          41280     ['block35_4_mixed[0][0]']     \n","                                                                                                  \n"," custom_scale_layer_3 (Cust  (None, 25, 25, 320)          0         ['block35_3_ac[0][0]',        \n"," omScaleLayer)                                                       'block35_4_conv[0][0]']      \n","                                                                                                  \n"," block35_4_ac (Activation)   (None, 25, 25, 320)          0         ['custom_scale_layer_3[0][0]']\n","                                                                                                  \n"," conv2d_39 (Conv2D)          (None, 25, 25, 32)           10240     ['block35_4_ac[0][0]']        \n","                                                                                                  \n"," batch_normalization_39 (Ba  (None, 25, 25, 32)           96        ['conv2d_39[0][0]']           \n"," tchNormalization)                                                                                \n","                                                                                                  \n"," activation_39 (Activation)  (None, 25, 25, 32)           0         ['batch_normalization_39[0][0]\n","                                                                    ']                            \n","                                                                                                  \n"," conv2d_37 (Conv2D)          (None, 25, 25, 32)           10240     ['block35_4_ac[0][0]']        \n","                                                                                                  \n"," conv2d_40 (Conv2D)          (None, 25, 25, 48)           13824     ['activation_39[0][0]']       \n","                                                                                                  \n"," batch_normalization_37 (Ba  (None, 25, 25, 32)           96        ['conv2d_37[0][0]']           \n"," tchNormalization)                                                                                \n","                                                                                                  \n"," batch_normalization_40 (Ba  (None, 25, 25, 48)           144       ['conv2d_40[0][0]']           \n"," tchNormalization)                                                                                \n","                                                                                                  \n"," activation_37 (Activation)  (None, 25, 25, 32)           0         ['batch_normalization_37[0][0]\n","                                                                    ']                            \n","                                                                                                  \n"," activation_40 (Activation)  (None, 25, 25, 48)           0         ['batch_normalization_40[0][0]\n","                                                                    ']                            \n","                                                                                                  \n"," conv2d_36 (Conv2D)          (None, 25, 25, 32)           10240     ['block35_4_ac[0][0]']        \n","                                                                                                  \n"," conv2d_38 (Conv2D)          (None, 25, 25, 32)           9216      ['activation_37[0][0]']       \n","                                                                                                  \n"," conv2d_41 (Conv2D)          (None, 25, 25, 64)           27648     ['activation_40[0][0]']       \n","                                                                                                  \n"," batch_normalization_36 (Ba  (None, 25, 25, 32)           96        ['conv2d_36[0][0]']           \n"," tchNormalization)                                                                                \n","                                                                                                  \n"," batch_normalization_38 (Ba  (None, 25, 25, 32)           96        ['conv2d_38[0][0]']           \n"," tchNormalization)                                                                                \n","                                                                                                  \n"," batch_normalization_41 (Ba  (None, 25, 25, 64)           192       ['conv2d_41[0][0]']           \n"," tchNormalization)                                                                                \n","                                                                                                  \n"," activation_36 (Activation)  (None, 25, 25, 32)           0         ['batch_normalization_36[0][0]\n","                                                                    ']                            \n","                                                                                                  \n"," activation_38 (Activation)  (None, 25, 25, 32)           0         ['batch_normalization_38[0][0]\n","                                                                    ']                            \n","                                                                                                  \n"," activation_41 (Activation)  (None, 25, 25, 64)           0         ['batch_normalization_41[0][0]\n","                                                                    ']                            \n","                                                                                                  \n"," block35_5_mixed (Concatena  (None, 25, 25, 128)          0         ['activation_36[0][0]',       \n"," te)                                                                 'activation_38[0][0]',       \n","                                                                     'activation_41[0][0]']       \n","                                                                                                  \n"," block35_5_conv (Conv2D)     (None, 25, 25, 320)          41280     ['block35_5_mixed[0][0]']     \n","                                                                                                  \n"," custom_scale_layer_4 (Cust  (None, 25, 25, 320)          0         ['block35_4_ac[0][0]',        \n"," omScaleLayer)                                                       'block35_5_conv[0][0]']      \n","                                                                                                  \n"," block35_5_ac (Activation)   (None, 25, 25, 320)          0         ['custom_scale_layer_4[0][0]']\n","                                                                                                  \n"," conv2d_45 (Conv2D)          (None, 25, 25, 32)           10240     ['block35_5_ac[0][0]']        \n","                                                                                                  \n"," batch_normalization_45 (Ba  (None, 25, 25, 32)           96        ['conv2d_45[0][0]']           \n"," tchNormalization)                                                                                \n","                                                                                                  \n"," activation_45 (Activation)  (None, 25, 25, 32)           0         ['batch_normalization_45[0][0]\n","                                                                    ']                            \n","                                                                                                  \n"," conv2d_43 (Conv2D)          (None, 25, 25, 32)           10240     ['block35_5_ac[0][0]']        \n","                                                                                                  \n"," conv2d_46 (Conv2D)          (None, 25, 25, 48)           13824     ['activation_45[0][0]']       \n","                                                                                                  \n"," batch_normalization_43 (Ba  (None, 25, 25, 32)           96        ['conv2d_43[0][0]']           \n"," tchNormalization)                                                                                \n","                                                                                                  \n"," batch_normalization_46 (Ba  (None, 25, 25, 48)           144       ['conv2d_46[0][0]']           \n"," tchNormalization)                                                                                \n","                                                                                                  \n"," activation_43 (Activation)  (None, 25, 25, 32)           0         ['batch_normalization_43[0][0]\n","                                                                    ']                            \n","                                                                                                  \n"," activation_46 (Activation)  (None, 25, 25, 48)           0         ['batch_normalization_46[0][0]\n","                                                                    ']                            \n","                                                                                                  \n"," conv2d_42 (Conv2D)          (None, 25, 25, 32)           10240     ['block35_5_ac[0][0]']        \n","                                                                                                  \n"," conv2d_44 (Conv2D)          (None, 25, 25, 32)           9216      ['activation_43[0][0]']       \n","                                                                                                  \n"," conv2d_47 (Conv2D)          (None, 25, 25, 64)           27648     ['activation_46[0][0]']       \n","                                                                                                  \n"," batch_normalization_42 (Ba  (None, 25, 25, 32)           96        ['conv2d_42[0][0]']           \n"," tchNormalization)                                                                                \n","                                                                                                  \n"," batch_normalization_44 (Ba  (None, 25, 25, 32)           96        ['conv2d_44[0][0]']           \n"," tchNormalization)                                                                                \n","                                                                                                  \n"," batch_normalization_47 (Ba  (None, 25, 25, 64)           192       ['conv2d_47[0][0]']           \n"," tchNormalization)                                                                                \n","                                                                                                  \n"," activation_42 (Activation)  (None, 25, 25, 32)           0         ['batch_normalization_42[0][0]\n","                                                                    ']                            \n","                                                                                                  \n"," activation_44 (Activation)  (None, 25, 25, 32)           0         ['batch_normalization_44[0][0]\n","                                                                    ']                            \n","                                                                                                  \n"," activation_47 (Activation)  (None, 25, 25, 64)           0         ['batch_normalization_47[0][0]\n","                                                                    ']                            \n","                                                                                                  \n"," block35_6_mixed (Concatena  (None, 25, 25, 128)          0         ['activation_42[0][0]',       \n"," te)                                                                 'activation_44[0][0]',       \n","                                                                     'activation_47[0][0]']       \n","                                                                                                  \n"," block35_6_conv (Conv2D)     (None, 25, 25, 320)          41280     ['block35_6_mixed[0][0]']     \n","                                                                                                  \n"," custom_scale_layer_5 (Cust  (None, 25, 25, 320)          0         ['block35_5_ac[0][0]',        \n"," omScaleLayer)                                                       'block35_6_conv[0][0]']      \n","                                                                                                  \n"," block35_6_ac (Activation)   (None, 25, 25, 320)          0         ['custom_scale_layer_5[0][0]']\n","                                                                                                  \n"," conv2d_51 (Conv2D)          (None, 25, 25, 32)           10240     ['block35_6_ac[0][0]']        \n","                                                                                                  \n"," batch_normalization_51 (Ba  (None, 25, 25, 32)           96        ['conv2d_51[0][0]']           \n"," tchNormalization)                                                                                \n","                                                                                                  \n"," activation_51 (Activation)  (None, 25, 25, 32)           0         ['batch_normalization_51[0][0]\n","                                                                    ']                            \n","                                                                                                  \n"," conv2d_49 (Conv2D)          (None, 25, 25, 32)           10240     ['block35_6_ac[0][0]']        \n","                                                                                                  \n"," conv2d_52 (Conv2D)          (None, 25, 25, 48)           13824     ['activation_51[0][0]']       \n","                                                                                                  \n"," batch_normalization_49 (Ba  (None, 25, 25, 32)           96        ['conv2d_49[0][0]']           \n"," tchNormalization)                                                                                \n","                                                                                                  \n"," batch_normalization_52 (Ba  (None, 25, 25, 48)           144       ['conv2d_52[0][0]']           \n"," tchNormalization)                                                                                \n","                                                                                                  \n"," activation_49 (Activation)  (None, 25, 25, 32)           0         ['batch_normalization_49[0][0]\n","                                                                    ']                            \n","                                                                                                  \n"," activation_52 (Activation)  (None, 25, 25, 48)           0         ['batch_normalization_52[0][0]\n","                                                                    ']                            \n","                                                                                                  \n"," conv2d_48 (Conv2D)          (None, 25, 25, 32)           10240     ['block35_6_ac[0][0]']        \n","                                                                                                  \n"," conv2d_50 (Conv2D)          (None, 25, 25, 32)           9216      ['activation_49[0][0]']       \n","                                                                                                  \n"," conv2d_53 (Conv2D)          (None, 25, 25, 64)           27648     ['activation_52[0][0]']       \n","                                                                                                  \n"," batch_normalization_48 (Ba  (None, 25, 25, 32)           96        ['conv2d_48[0][0]']           \n"," tchNormalization)                                                                                \n","                                                                                                  \n"," batch_normalization_50 (Ba  (None, 25, 25, 32)           96        ['conv2d_50[0][0]']           \n"," tchNormalization)                                                                                \n","                                                                                                  \n"," batch_normalization_53 (Ba  (None, 25, 25, 64)           192       ['conv2d_53[0][0]']           \n"," tchNormalization)                                                                                \n","                                                                                                  \n"," activation_48 (Activation)  (None, 25, 25, 32)           0         ['batch_normalization_48[0][0]\n","                                                                    ']                            \n","                                                                                                  \n"," activation_50 (Activation)  (None, 25, 25, 32)           0         ['batch_normalization_50[0][0]\n","                                                                    ']                            \n","                                                                                                  \n"," activation_53 (Activation)  (None, 25, 25, 64)           0         ['batch_normalization_53[0][0]\n","                                                                    ']                            \n","                                                                                                  \n"," block35_7_mixed (Concatena  (None, 25, 25, 128)          0         ['activation_48[0][0]',       \n"," te)                                                                 'activation_50[0][0]',       \n","                                                                     'activation_53[0][0]']       \n","                                                                                                  \n"," block35_7_conv (Conv2D)     (None, 25, 25, 320)          41280     ['block35_7_mixed[0][0]']     \n","                                                                                                  \n"," custom_scale_layer_6 (Cust  (None, 25, 25, 320)          0         ['block35_6_ac[0][0]',        \n"," omScaleLayer)                                                       'block35_7_conv[0][0]']      \n","                                                                                                  \n"," block35_7_ac (Activation)   (None, 25, 25, 320)          0         ['custom_scale_layer_6[0][0]']\n","                                                                                                  \n"," conv2d_57 (Conv2D)          (None, 25, 25, 32)           10240     ['block35_7_ac[0][0]']        \n","                                                                                                  \n"," batch_normalization_57 (Ba  (None, 25, 25, 32)           96        ['conv2d_57[0][0]']           \n"," tchNormalization)                                                                                \n","                                                                                                  \n"," activation_57 (Activation)  (None, 25, 25, 32)           0         ['batch_normalization_57[0][0]\n","                                                                    ']                            \n","                                                                                                  \n"," conv2d_55 (Conv2D)          (None, 25, 25, 32)           10240     ['block35_7_ac[0][0]']        \n","                                                                                                  \n"," conv2d_58 (Conv2D)          (None, 25, 25, 48)           13824     ['activation_57[0][0]']       \n","                                                                                                  \n"," batch_normalization_55 (Ba  (None, 25, 25, 32)           96        ['conv2d_55[0][0]']           \n"," tchNormalization)                                                                                \n","                                                                                                  \n"," batch_normalization_58 (Ba  (None, 25, 25, 48)           144       ['conv2d_58[0][0]']           \n"," tchNormalization)                                                                                \n","                                                                                                  \n"," activation_55 (Activation)  (None, 25, 25, 32)           0         ['batch_normalization_55[0][0]\n","                                                                    ']                            \n","                                                                                                  \n"," activation_58 (Activation)  (None, 25, 25, 48)           0         ['batch_normalization_58[0][0]\n","                                                                    ']                            \n","                                                                                                  \n"," conv2d_54 (Conv2D)          (None, 25, 25, 32)           10240     ['block35_7_ac[0][0]']        \n","                                                                                                  \n"," conv2d_56 (Conv2D)          (None, 25, 25, 32)           9216      ['activation_55[0][0]']       \n","                                                                                                  \n"," conv2d_59 (Conv2D)          (None, 25, 25, 64)           27648     ['activation_58[0][0]']       \n","                                                                                                  \n"," batch_normalization_54 (Ba  (None, 25, 25, 32)           96        ['conv2d_54[0][0]']           \n"," tchNormalization)                                                                                \n","                                                                                                  \n"," batch_normalization_56 (Ba  (None, 25, 25, 32)           96        ['conv2d_56[0][0]']           \n"," tchNormalization)                                                                                \n","                                                                                                  \n"," batch_normalization_59 (Ba  (None, 25, 25, 64)           192       ['conv2d_59[0][0]']           \n"," tchNormalization)                                                                                \n","                                                                                                  \n"," activation_54 (Activation)  (None, 25, 25, 32)           0         ['batch_normalization_54[0][0]\n","                                                                    ']                            \n","                                                                                                  \n"," activation_56 (Activation)  (None, 25, 25, 32)           0         ['batch_normalization_56[0][0]\n","                                                                    ']                            \n","                                                                                                  \n"," activation_59 (Activation)  (None, 25, 25, 64)           0         ['batch_normalization_59[0][0]\n","                                                                    ']                            \n","                                                                                                  \n"," block35_8_mixed (Concatena  (None, 25, 25, 128)          0         ['activation_54[0][0]',       \n"," te)                                                                 'activation_56[0][0]',       \n","                                                                     'activation_59[0][0]']       \n","                                                                                                  \n"," block35_8_conv (Conv2D)     (None, 25, 25, 320)          41280     ['block35_8_mixed[0][0]']     \n","                                                                                                  \n"," custom_scale_layer_7 (Cust  (None, 25, 25, 320)          0         ['block35_7_ac[0][0]',        \n"," omScaleLayer)                                                       'block35_8_conv[0][0]']      \n","                                                                                                  \n"," block35_8_ac (Activation)   (None, 25, 25, 320)          0         ['custom_scale_layer_7[0][0]']\n","                                                                                                  \n"," conv2d_63 (Conv2D)          (None, 25, 25, 32)           10240     ['block35_8_ac[0][0]']        \n","                                                                                                  \n"," batch_normalization_63 (Ba  (None, 25, 25, 32)           96        ['conv2d_63[0][0]']           \n"," tchNormalization)                                                                                \n","                                                                                                  \n"," activation_63 (Activation)  (None, 25, 25, 32)           0         ['batch_normalization_63[0][0]\n","                                                                    ']                            \n","                                                                                                  \n"," conv2d_61 (Conv2D)          (None, 25, 25, 32)           10240     ['block35_8_ac[0][0]']        \n","                                                                                                  \n"," conv2d_64 (Conv2D)          (None, 25, 25, 48)           13824     ['activation_63[0][0]']       \n","                                                                                                  \n"," batch_normalization_61 (Ba  (None, 25, 25, 32)           96        ['conv2d_61[0][0]']           \n"," tchNormalization)                                                                                \n","                                                                                                  \n"," batch_normalization_64 (Ba  (None, 25, 25, 48)           144       ['conv2d_64[0][0]']           \n"," tchNormalization)                                                                                \n","                                                                                                  \n"," activation_61 (Activation)  (None, 25, 25, 32)           0         ['batch_normalization_61[0][0]\n","                                                                    ']                            \n","                                                                                                  \n"," activation_64 (Activation)  (None, 25, 25, 48)           0         ['batch_normalization_64[0][0]\n","                                                                    ']                            \n","                                                                                                  \n"," conv2d_60 (Conv2D)          (None, 25, 25, 32)           10240     ['block35_8_ac[0][0]']        \n","                                                                                                  \n"," conv2d_62 (Conv2D)          (None, 25, 25, 32)           9216      ['activation_61[0][0]']       \n","                                                                                                  \n"," conv2d_65 (Conv2D)          (None, 25, 25, 64)           27648     ['activation_64[0][0]']       \n","                                                                                                  \n"," batch_normalization_60 (Ba  (None, 25, 25, 32)           96        ['conv2d_60[0][0]']           \n"," tchNormalization)                                                                                \n","                                                                                                  \n"," batch_normalization_62 (Ba  (None, 25, 25, 32)           96        ['conv2d_62[0][0]']           \n"," tchNormalization)                                                                                \n","                                                                                                  \n"," batch_normalization_65 (Ba  (None, 25, 25, 64)           192       ['conv2d_65[0][0]']           \n"," tchNormalization)                                                                                \n","                                                                                                  \n"," activation_60 (Activation)  (None, 25, 25, 32)           0         ['batch_normalization_60[0][0]\n","                                                                    ']                            \n","                                                                                                  \n"," activation_62 (Activation)  (None, 25, 25, 32)           0         ['batch_normalization_62[0][0]\n","                                                                    ']                            \n","                                                                                                  \n"," activation_65 (Activation)  (None, 25, 25, 64)           0         ['batch_normalization_65[0][0]\n","                                                                    ']                            \n","                                                                                                  \n"," block35_9_mixed (Concatena  (None, 25, 25, 128)          0         ['activation_60[0][0]',       \n"," te)                                                                 'activation_62[0][0]',       \n","                                                                     'activation_65[0][0]']       \n","                                                                                                  \n"," block35_9_conv (Conv2D)     (None, 25, 25, 320)          41280     ['block35_9_mixed[0][0]']     \n","                                                                                                  \n"," custom_scale_layer_8 (Cust  (None, 25, 25, 320)          0         ['block35_8_ac[0][0]',        \n"," omScaleLayer)                                                       'block35_9_conv[0][0]']      \n","                                                                                                  \n"," block35_9_ac (Activation)   (None, 25, 25, 320)          0         ['custom_scale_layer_8[0][0]']\n","                                                                                                  \n"," conv2d_69 (Conv2D)          (None, 25, 25, 32)           10240     ['block35_9_ac[0][0]']        \n","                                                                                                  \n"," batch_normalization_69 (Ba  (None, 25, 25, 32)           96        ['conv2d_69[0][0]']           \n"," tchNormalization)                                                                                \n","                                                                                                  \n"," activation_69 (Activation)  (None, 25, 25, 32)           0         ['batch_normalization_69[0][0]\n","                                                                    ']                            \n","                                                                                                  \n"," conv2d_67 (Conv2D)          (None, 25, 25, 32)           10240     ['block35_9_ac[0][0]']        \n","                                                                                                  \n"," conv2d_70 (Conv2D)          (None, 25, 25, 48)           13824     ['activation_69[0][0]']       \n","                                                                                                  \n"," batch_normalization_67 (Ba  (None, 25, 25, 32)           96        ['conv2d_67[0][0]']           \n"," tchNormalization)                                                                                \n","                                                                                                  \n"," batch_normalization_70 (Ba  (None, 25, 25, 48)           144       ['conv2d_70[0][0]']           \n"," tchNormalization)                                                                                \n","                                                                                                  \n"," activation_67 (Activation)  (None, 25, 25, 32)           0         ['batch_normalization_67[0][0]\n","                                                                    ']                            \n","                                                                                                  \n"," activation_70 (Activation)  (None, 25, 25, 48)           0         ['batch_normalization_70[0][0]\n","                                                                    ']                            \n","                                                                                                  \n"," conv2d_66 (Conv2D)          (None, 25, 25, 32)           10240     ['block35_9_ac[0][0]']        \n","                                                                                                  \n"," conv2d_68 (Conv2D)          (None, 25, 25, 32)           9216      ['activation_67[0][0]']       \n","                                                                                                  \n"," conv2d_71 (Conv2D)          (None, 25, 25, 64)           27648     ['activation_70[0][0]']       \n","                                                                                                  \n"," batch_normalization_66 (Ba  (None, 25, 25, 32)           96        ['conv2d_66[0][0]']           \n"," tchNormalization)                                                                                \n","                                                                                                  \n"," batch_normalization_68 (Ba  (None, 25, 25, 32)           96        ['conv2d_68[0][0]']           \n"," tchNormalization)                                                                                \n","                                                                                                  \n"," batch_normalization_71 (Ba  (None, 25, 25, 64)           192       ['conv2d_71[0][0]']           \n"," tchNormalization)                                                                                \n","                                                                                                  \n"," activation_66 (Activation)  (None, 25, 25, 32)           0         ['batch_normalization_66[0][0]\n","                                                                    ']                            \n","                                                                                                  \n"," activation_68 (Activation)  (None, 25, 25, 32)           0         ['batch_normalization_68[0][0]\n","                                                                    ']                            \n","                                                                                                  \n"," activation_71 (Activation)  (None, 25, 25, 64)           0         ['batch_normalization_71[0][0]\n","                                                                    ']                            \n","                                                                                                  \n"," block35_10_mixed (Concaten  (None, 25, 25, 128)          0         ['activation_66[0][0]',       \n"," ate)                                                                'activation_68[0][0]',       \n","                                                                     'activation_71[0][0]']       \n","                                                                                                  \n"," block35_10_conv (Conv2D)    (None, 25, 25, 320)          41280     ['block35_10_mixed[0][0]']    \n","                                                                                                  \n"," custom_scale_layer_9 (Cust  (None, 25, 25, 320)          0         ['block35_9_ac[0][0]',        \n"," omScaleLayer)                                                       'block35_10_conv[0][0]']     \n","                                                                                                  \n"," block35_10_ac (Activation)  (None, 25, 25, 320)          0         ['custom_scale_layer_9[0][0]']\n","                                                                                                  \n"," conv2d_73 (Conv2D)          (None, 25, 25, 256)          81920     ['block35_10_ac[0][0]']       \n","                                                                                                  \n"," batch_normalization_73 (Ba  (None, 25, 25, 256)          768       ['conv2d_73[0][0]']           \n"," tchNormalization)                                                                                \n","                                                                                                  \n"," activation_73 (Activation)  (None, 25, 25, 256)          0         ['batch_normalization_73[0][0]\n","                                                                    ']                            \n","                                                                                                  \n"," conv2d_74 (Conv2D)          (None, 25, 25, 256)          589824    ['activation_73[0][0]']       \n","                                                                                                  \n"," batch_normalization_74 (Ba  (None, 25, 25, 256)          768       ['conv2d_74[0][0]']           \n"," tchNormalization)                                                                                \n","                                                                                                  \n"," activation_74 (Activation)  (None, 25, 25, 256)          0         ['batch_normalization_74[0][0]\n","                                                                    ']                            \n","                                                                                                  \n"," conv2d_72 (Conv2D)          (None, 12, 12, 384)          1105920   ['block35_10_ac[0][0]']       \n","                                                                                                  \n"," conv2d_75 (Conv2D)          (None, 12, 12, 384)          884736    ['activation_74[0][0]']       \n","                                                                                                  \n"," batch_normalization_72 (Ba  (None, 12, 12, 384)          1152      ['conv2d_72[0][0]']           \n"," tchNormalization)                                                                                \n","                                                                                                  \n"," batch_normalization_75 (Ba  (None, 12, 12, 384)          1152      ['conv2d_75[0][0]']           \n"," tchNormalization)                                                                                \n","                                                                                                  \n"," activation_72 (Activation)  (None, 12, 12, 384)          0         ['batch_normalization_72[0][0]\n","                                                                    ']                            \n","                                                                                                  \n"," activation_75 (Activation)  (None, 12, 12, 384)          0         ['batch_normalization_75[0][0]\n","                                                                    ']                            \n","                                                                                                  \n"," max_pooling2d_2 (MaxPoolin  (None, 12, 12, 320)          0         ['block35_10_ac[0][0]']       \n"," g2D)                                                                                             \n","                                                                                                  \n"," mixed_6a (Concatenate)      (None, 12, 12, 1088)         0         ['activation_72[0][0]',       \n","                                                                     'activation_75[0][0]',       \n","                                                                     'max_pooling2d_2[0][0]']     \n","                                                                                                  \n"," conv2d_77 (Conv2D)          (None, 12, 12, 128)          139264    ['mixed_6a[0][0]']            \n","                                                                                                  \n"," batch_normalization_77 (Ba  (None, 12, 12, 128)          384       ['conv2d_77[0][0]']           \n"," tchNormalization)                                                                                \n","                                                                                                  \n"," activation_77 (Activation)  (None, 12, 12, 128)          0         ['batch_normalization_77[0][0]\n","                                                                    ']                            \n","                                                                                                  \n"," conv2d_78 (Conv2D)          (None, 12, 12, 160)          143360    ['activation_77[0][0]']       \n","                                                                                                  \n"," batch_normalization_78 (Ba  (None, 12, 12, 160)          480       ['conv2d_78[0][0]']           \n"," tchNormalization)                                                                                \n","                                                                                                  \n"," activation_78 (Activation)  (None, 12, 12, 160)          0         ['batch_normalization_78[0][0]\n","                                                                    ']                            \n","                                                                                                  \n"," conv2d_76 (Conv2D)          (None, 12, 12, 192)          208896    ['mixed_6a[0][0]']            \n","                                                                                                  \n"," conv2d_79 (Conv2D)          (None, 12, 12, 192)          215040    ['activation_78[0][0]']       \n","                                                                                                  \n"," batch_normalization_76 (Ba  (None, 12, 12, 192)          576       ['conv2d_76[0][0]']           \n"," tchNormalization)                                                                                \n","                                                                                                  \n"," batch_normalization_79 (Ba  (None, 12, 12, 192)          576       ['conv2d_79[0][0]']           \n"," tchNormalization)                                                                                \n","                                                                                                  \n"," activation_76 (Activation)  (None, 12, 12, 192)          0         ['batch_normalization_76[0][0]\n","                                                                    ']                            \n","                                                                                                  \n"," activation_79 (Activation)  (None, 12, 12, 192)          0         ['batch_normalization_79[0][0]\n","                                                                    ']                            \n","                                                                                                  \n"," block17_1_mixed (Concatena  (None, 12, 12, 384)          0         ['activation_76[0][0]',       \n"," te)                                                                 'activation_79[0][0]']       \n","                                                                                                  \n"," block17_1_conv (Conv2D)     (None, 12, 12, 1088)         418880    ['block17_1_mixed[0][0]']     \n","                                                                                                  \n"," custom_scale_layer_10 (Cus  (None, 12, 12, 1088)         0         ['mixed_6a[0][0]',            \n"," tomScaleLayer)                                                      'block17_1_conv[0][0]']      \n","                                                                                                  \n"," block17_1_ac (Activation)   (None, 12, 12, 1088)         0         ['custom_scale_layer_10[0][0]'\n","                                                                    ]                             \n","                                                                                                  \n"," conv2d_81 (Conv2D)          (None, 12, 12, 128)          139264    ['block17_1_ac[0][0]']        \n","                                                                                                  \n"," batch_normalization_81 (Ba  (None, 12, 12, 128)          384       ['conv2d_81[0][0]']           \n"," tchNormalization)                                                                                \n","                                                                                                  \n"," activation_81 (Activation)  (None, 12, 12, 128)          0         ['batch_normalization_81[0][0]\n","                                                                    ']                            \n","                                                                                                  \n"," conv2d_82 (Conv2D)          (None, 12, 12, 160)          143360    ['activation_81[0][0]']       \n","                                                                                                  \n"," batch_normalization_82 (Ba  (None, 12, 12, 160)          480       ['conv2d_82[0][0]']           \n"," tchNormalization)                                                                                \n","                                                                                                  \n"," activation_82 (Activation)  (None, 12, 12, 160)          0         ['batch_normalization_82[0][0]\n","                                                                    ']                            \n","                                                                                                  \n"," conv2d_80 (Conv2D)          (None, 12, 12, 192)          208896    ['block17_1_ac[0][0]']        \n","                                                                                                  \n"," conv2d_83 (Conv2D)          (None, 12, 12, 192)          215040    ['activation_82[0][0]']       \n","                                                                                                  \n"," batch_normalization_80 (Ba  (None, 12, 12, 192)          576       ['conv2d_80[0][0]']           \n"," tchNormalization)                                                                                \n","                                                                                                  \n"," batch_normalization_83 (Ba  (None, 12, 12, 192)          576       ['conv2d_83[0][0]']           \n"," tchNormalization)                                                                                \n","                                                                                                  \n"," activation_80 (Activation)  (None, 12, 12, 192)          0         ['batch_normalization_80[0][0]\n","                                                                    ']                            \n","                                                                                                  \n"," activation_83 (Activation)  (None, 12, 12, 192)          0         ['batch_normalization_83[0][0]\n","                                                                    ']                            \n","                                                                                                  \n"," block17_2_mixed (Concatena  (None, 12, 12, 384)          0         ['activation_80[0][0]',       \n"," te)                                                                 'activation_83[0][0]']       \n","                                                                                                  \n"," block17_2_conv (Conv2D)     (None, 12, 12, 1088)         418880    ['block17_2_mixed[0][0]']     \n","                                                                                                  \n"," custom_scale_layer_11 (Cus  (None, 12, 12, 1088)         0         ['block17_1_ac[0][0]',        \n"," tomScaleLayer)                                                      'block17_2_conv[0][0]']      \n","                                                                                                  \n"," block17_2_ac (Activation)   (None, 12, 12, 1088)         0         ['custom_scale_layer_11[0][0]'\n","                                                                    ]                             \n","                                                                                                  \n"," conv2d_85 (Conv2D)          (None, 12, 12, 128)          139264    ['block17_2_ac[0][0]']        \n","                                                                                                  \n"," batch_normalization_85 (Ba  (None, 12, 12, 128)          384       ['conv2d_85[0][0]']           \n"," tchNormalization)                                                                                \n","                                                                                                  \n"," activation_85 (Activation)  (None, 12, 12, 128)          0         ['batch_normalization_85[0][0]\n","                                                                    ']                            \n","                                                                                                  \n"," conv2d_86 (Conv2D)          (None, 12, 12, 160)          143360    ['activation_85[0][0]']       \n","                                                                                                  \n"," batch_normalization_86 (Ba  (None, 12, 12, 160)          480       ['conv2d_86[0][0]']           \n"," tchNormalization)                                                                                \n","                                                                                                  \n"," activation_86 (Activation)  (None, 12, 12, 160)          0         ['batch_normalization_86[0][0]\n","                                                                    ']                            \n","                                                                                                  \n"," conv2d_84 (Conv2D)          (None, 12, 12, 192)          208896    ['block17_2_ac[0][0]']        \n","                                                                                                  \n"," conv2d_87 (Conv2D)          (None, 12, 12, 192)          215040    ['activation_86[0][0]']       \n","                                                                                                  \n"," batch_normalization_84 (Ba  (None, 12, 12, 192)          576       ['conv2d_84[0][0]']           \n"," tchNormalization)                                                                                \n","                                                                                                  \n"," batch_normalization_87 (Ba  (None, 12, 12, 192)          576       ['conv2d_87[0][0]']           \n"," tchNormalization)                                                                                \n","                                                                                                  \n"," activation_84 (Activation)  (None, 12, 12, 192)          0         ['batch_normalization_84[0][0]\n","                                                                    ']                            \n","                                                                                                  \n"," activation_87 (Activation)  (None, 12, 12, 192)          0         ['batch_normalization_87[0][0]\n","                                                                    ']                            \n","                                                                                                  \n"," block17_3_mixed (Concatena  (None, 12, 12, 384)          0         ['activation_84[0][0]',       \n"," te)                                                                 'activation_87[0][0]']       \n","                                                                                                  \n"," block17_3_conv (Conv2D)     (None, 12, 12, 1088)         418880    ['block17_3_mixed[0][0]']     \n","                                                                                                  \n"," custom_scale_layer_12 (Cus  (None, 12, 12, 1088)         0         ['block17_2_ac[0][0]',        \n"," tomScaleLayer)                                                      'block17_3_conv[0][0]']      \n","                                                                                                  \n"," block17_3_ac (Activation)   (None, 12, 12, 1088)         0         ['custom_scale_layer_12[0][0]'\n","                                                                    ]                             \n","                                                                                                  \n"," conv2d_89 (Conv2D)          (None, 12, 12, 128)          139264    ['block17_3_ac[0][0]']        \n","                                                                                                  \n"," batch_normalization_89 (Ba  (None, 12, 12, 128)          384       ['conv2d_89[0][0]']           \n"," tchNormalization)                                                                                \n","                                                                                                  \n"," activation_89 (Activation)  (None, 12, 12, 128)          0         ['batch_normalization_89[0][0]\n","                                                                    ']                            \n","                                                                                                  \n"," conv2d_90 (Conv2D)          (None, 12, 12, 160)          143360    ['activation_89[0][0]']       \n","                                                                                                  \n"," batch_normalization_90 (Ba  (None, 12, 12, 160)          480       ['conv2d_90[0][0]']           \n"," tchNormalization)                                                                                \n","                                                                                                  \n"," activation_90 (Activation)  (None, 12, 12, 160)          0         ['batch_normalization_90[0][0]\n","                                                                    ']                            \n","                                                                                                  \n"," conv2d_88 (Conv2D)          (None, 12, 12, 192)          208896    ['block17_3_ac[0][0]']        \n","                                                                                                  \n"," conv2d_91 (Conv2D)          (None, 12, 12, 192)          215040    ['activation_90[0][0]']       \n","                                                                                                  \n"," batch_normalization_88 (Ba  (None, 12, 12, 192)          576       ['conv2d_88[0][0]']           \n"," tchNormalization)                                                                                \n","                                                                                                  \n"," batch_normalization_91 (Ba  (None, 12, 12, 192)          576       ['conv2d_91[0][0]']           \n"," tchNormalization)                                                                                \n","                                                                                                  \n"," activation_88 (Activation)  (None, 12, 12, 192)          0         ['batch_normalization_88[0][0]\n","                                                                    ']                            \n","                                                                                                  \n"," activation_91 (Activation)  (None, 12, 12, 192)          0         ['batch_normalization_91[0][0]\n","                                                                    ']                            \n","                                                                                                  \n"," block17_4_mixed (Concatena  (None, 12, 12, 384)          0         ['activation_88[0][0]',       \n"," te)                                                                 'activation_91[0][0]']       \n","                                                                                                  \n"," block17_4_conv (Conv2D)     (None, 12, 12, 1088)         418880    ['block17_4_mixed[0][0]']     \n","                                                                                                  \n"," custom_scale_layer_13 (Cus  (None, 12, 12, 1088)         0         ['block17_3_ac[0][0]',        \n"," tomScaleLayer)                                                      'block17_4_conv[0][0]']      \n","                                                                                                  \n"," block17_4_ac (Activation)   (None, 12, 12, 1088)         0         ['custom_scale_layer_13[0][0]'\n","                                                                    ]                             \n","                                                                                                  \n"," conv2d_93 (Conv2D)          (None, 12, 12, 128)          139264    ['block17_4_ac[0][0]']        \n","                                                                                                  \n"," batch_normalization_93 (Ba  (None, 12, 12, 128)          384       ['conv2d_93[0][0]']           \n"," tchNormalization)                                                                                \n","                                                                                                  \n"," activation_93 (Activation)  (None, 12, 12, 128)          0         ['batch_normalization_93[0][0]\n","                                                                    ']                            \n","                                                                                                  \n"," conv2d_94 (Conv2D)          (None, 12, 12, 160)          143360    ['activation_93[0][0]']       \n","                                                                                                  \n"," batch_normalization_94 (Ba  (None, 12, 12, 160)          480       ['conv2d_94[0][0]']           \n"," tchNormalization)                                                                                \n","                                                                                                  \n"," activation_94 (Activation)  (None, 12, 12, 160)          0         ['batch_normalization_94[0][0]\n","                                                                    ']                            \n","                                                                                                  \n"," conv2d_92 (Conv2D)          (None, 12, 12, 192)          208896    ['block17_4_ac[0][0]']        \n","                                                                                                  \n"," conv2d_95 (Conv2D)          (None, 12, 12, 192)          215040    ['activation_94[0][0]']       \n","                                                                                                  \n"," batch_normalization_92 (Ba  (None, 12, 12, 192)          576       ['conv2d_92[0][0]']           \n"," tchNormalization)                                                                                \n","                                                                                                  \n"," batch_normalization_95 (Ba  (None, 12, 12, 192)          576       ['conv2d_95[0][0]']           \n"," tchNormalization)                                                                                \n","                                                                                                  \n"," activation_92 (Activation)  (None, 12, 12, 192)          0         ['batch_normalization_92[0][0]\n","                                                                    ']                            \n","                                                                                                  \n"," activation_95 (Activation)  (None, 12, 12, 192)          0         ['batch_normalization_95[0][0]\n","                                                                    ']                            \n","                                                                                                  \n"," block17_5_mixed (Concatena  (None, 12, 12, 384)          0         ['activation_92[0][0]',       \n"," te)                                                                 'activation_95[0][0]']       \n","                                                                                                  \n"," block17_5_conv (Conv2D)     (None, 12, 12, 1088)         418880    ['block17_5_mixed[0][0]']     \n","                                                                                                  \n"," custom_scale_layer_14 (Cus  (None, 12, 12, 1088)         0         ['block17_4_ac[0][0]',        \n"," tomScaleLayer)                                                      'block17_5_conv[0][0]']      \n","                                                                                                  \n"," block17_5_ac (Activation)   (None, 12, 12, 1088)         0         ['custom_scale_layer_14[0][0]'\n","                                                                    ]                             \n","                                                                                                  \n"," conv2d_97 (Conv2D)          (None, 12, 12, 128)          139264    ['block17_5_ac[0][0]']        \n","                                                                                                  \n"," batch_normalization_97 (Ba  (None, 12, 12, 128)          384       ['conv2d_97[0][0]']           \n"," tchNormalization)                                                                                \n","                                                                                                  \n"," activation_97 (Activation)  (None, 12, 12, 128)          0         ['batch_normalization_97[0][0]\n","                                                                    ']                            \n","                                                                                                  \n"," conv2d_98 (Conv2D)          (None, 12, 12, 160)          143360    ['activation_97[0][0]']       \n","                                                                                                  \n"," batch_normalization_98 (Ba  (None, 12, 12, 160)          480       ['conv2d_98[0][0]']           \n"," tchNormalization)                                                                                \n","                                                                                                  \n"," activation_98 (Activation)  (None, 12, 12, 160)          0         ['batch_normalization_98[0][0]\n","                                                                    ']                            \n","                                                                                                  \n"," conv2d_96 (Conv2D)          (None, 12, 12, 192)          208896    ['block17_5_ac[0][0]']        \n","                                                                                                  \n"," conv2d_99 (Conv2D)          (None, 12, 12, 192)          215040    ['activation_98[0][0]']       \n","                                                                                                  \n"," batch_normalization_96 (Ba  (None, 12, 12, 192)          576       ['conv2d_96[0][0]']           \n"," tchNormalization)                                                                                \n","                                                                                                  \n"," batch_normalization_99 (Ba  (None, 12, 12, 192)          576       ['conv2d_99[0][0]']           \n"," tchNormalization)                                                                                \n","                                                                                                  \n"," activation_96 (Activation)  (None, 12, 12, 192)          0         ['batch_normalization_96[0][0]\n","                                                                    ']                            \n","                                                                                                  \n"," activation_99 (Activation)  (None, 12, 12, 192)          0         ['batch_normalization_99[0][0]\n","                                                                    ']                            \n","                                                                                                  \n"," block17_6_mixed (Concatena  (None, 12, 12, 384)          0         ['activation_96[0][0]',       \n"," te)                                                                 'activation_99[0][0]']       \n","                                                                                                  \n"," block17_6_conv (Conv2D)     (None, 12, 12, 1088)         418880    ['block17_6_mixed[0][0]']     \n","                                                                                                  \n"," custom_scale_layer_15 (Cus  (None, 12, 12, 1088)         0         ['block17_5_ac[0][0]',        \n"," tomScaleLayer)                                                      'block17_6_conv[0][0]']      \n","                                                                                                  \n"," block17_6_ac (Activation)   (None, 12, 12, 1088)         0         ['custom_scale_layer_15[0][0]'\n","                                                                    ]                             \n","                                                                                                  \n"," conv2d_101 (Conv2D)         (None, 12, 12, 128)          139264    ['block17_6_ac[0][0]']        \n","                                                                                                  \n"," batch_normalization_101 (B  (None, 12, 12, 128)          384       ['conv2d_101[0][0]']          \n"," atchNormalization)                                                                               \n","                                                                                                  \n"," activation_101 (Activation  (None, 12, 12, 128)          0         ['batch_normalization_101[0][0\n"," )                                                                  ]']                           \n","                                                                                                  \n"," conv2d_102 (Conv2D)         (None, 12, 12, 160)          143360    ['activation_101[0][0]']      \n","                                                                                                  \n"," batch_normalization_102 (B  (None, 12, 12, 160)          480       ['conv2d_102[0][0]']          \n"," atchNormalization)                                                                               \n","                                                                                                  \n"," activation_102 (Activation  (None, 12, 12, 160)          0         ['batch_normalization_102[0][0\n"," )                                                                  ]']                           \n","                                                                                                  \n"," conv2d_100 (Conv2D)         (None, 12, 12, 192)          208896    ['block17_6_ac[0][0]']        \n","                                                                                                  \n"," conv2d_103 (Conv2D)         (None, 12, 12, 192)          215040    ['activation_102[0][0]']      \n","                                                                                                  \n"," batch_normalization_100 (B  (None, 12, 12, 192)          576       ['conv2d_100[0][0]']          \n"," atchNormalization)                                                                               \n","                                                                                                  \n"," batch_normalization_103 (B  (None, 12, 12, 192)          576       ['conv2d_103[0][0]']          \n"," atchNormalization)                                                                               \n","                                                                                                  \n"," activation_100 (Activation  (None, 12, 12, 192)          0         ['batch_normalization_100[0][0\n"," )                                                                  ]']                           \n","                                                                                                  \n"," activation_103 (Activation  (None, 12, 12, 192)          0         ['batch_normalization_103[0][0\n"," )                                                                  ]']                           \n","                                                                                                  \n"," block17_7_mixed (Concatena  (None, 12, 12, 384)          0         ['activation_100[0][0]',      \n"," te)                                                                 'activation_103[0][0]']      \n","                                                                                                  \n"," block17_7_conv (Conv2D)     (None, 12, 12, 1088)         418880    ['block17_7_mixed[0][0]']     \n","                                                                                                  \n"," custom_scale_layer_16 (Cus  (None, 12, 12, 1088)         0         ['block17_6_ac[0][0]',        \n"," tomScaleLayer)                                                      'block17_7_conv[0][0]']      \n","                                                                                                  \n"," block17_7_ac (Activation)   (None, 12, 12, 1088)         0         ['custom_scale_layer_16[0][0]'\n","                                                                    ]                             \n","                                                                                                  \n"," conv2d_105 (Conv2D)         (None, 12, 12, 128)          139264    ['block17_7_ac[0][0]']        \n","                                                                                                  \n"," batch_normalization_105 (B  (None, 12, 12, 128)          384       ['conv2d_105[0][0]']          \n"," atchNormalization)                                                                               \n","                                                                                                  \n"," activation_105 (Activation  (None, 12, 12, 128)          0         ['batch_normalization_105[0][0\n"," )                                                                  ]']                           \n","                                                                                                  \n"," conv2d_106 (Conv2D)         (None, 12, 12, 160)          143360    ['activation_105[0][0]']      \n","                                                                                                  \n"," batch_normalization_106 (B  (None, 12, 12, 160)          480       ['conv2d_106[0][0]']          \n"," atchNormalization)                                                                               \n","                                                                                                  \n"," activation_106 (Activation  (None, 12, 12, 160)          0         ['batch_normalization_106[0][0\n"," )                                                                  ]']                           \n","                                                                                                  \n"," conv2d_104 (Conv2D)         (None, 12, 12, 192)          208896    ['block17_7_ac[0][0]']        \n","                                                                                                  \n"," conv2d_107 (Conv2D)         (None, 12, 12, 192)          215040    ['activation_106[0][0]']      \n","                                                                                                  \n"," batch_normalization_104 (B  (None, 12, 12, 192)          576       ['conv2d_104[0][0]']          \n"," atchNormalization)                                                                               \n","                                                                                                  \n"," batch_normalization_107 (B  (None, 12, 12, 192)          576       ['conv2d_107[0][0]']          \n"," atchNormalization)                                                                               \n","                                                                                                  \n"," activation_104 (Activation  (None, 12, 12, 192)          0         ['batch_normalization_104[0][0\n"," )                                                                  ]']                           \n","                                                                                                  \n"," activation_107 (Activation  (None, 12, 12, 192)          0         ['batch_normalization_107[0][0\n"," )                                                                  ]']                           \n","                                                                                                  \n"," block17_8_mixed (Concatena  (None, 12, 12, 384)          0         ['activation_104[0][0]',      \n"," te)                                                                 'activation_107[0][0]']      \n","                                                                                                  \n"," block17_8_conv (Conv2D)     (None, 12, 12, 1088)         418880    ['block17_8_mixed[0][0]']     \n","                                                                                                  \n"," custom_scale_layer_17 (Cus  (None, 12, 12, 1088)         0         ['block17_7_ac[0][0]',        \n"," tomScaleLayer)                                                      'block17_8_conv[0][0]']      \n","                                                                                                  \n"," block17_8_ac (Activation)   (None, 12, 12, 1088)         0         ['custom_scale_layer_17[0][0]'\n","                                                                    ]                             \n","                                                                                                  \n"," conv2d_109 (Conv2D)         (None, 12, 12, 128)          139264    ['block17_8_ac[0][0]']        \n","                                                                                                  \n"," batch_normalization_109 (B  (None, 12, 12, 128)          384       ['conv2d_109[0][0]']          \n"," atchNormalization)                                                                               \n","                                                                                                  \n"," activation_109 (Activation  (None, 12, 12, 128)          0         ['batch_normalization_109[0][0\n"," )                                                                  ]']                           \n","                                                                                                  \n"," conv2d_110 (Conv2D)         (None, 12, 12, 160)          143360    ['activation_109[0][0]']      \n","                                                                                                  \n"," batch_normalization_110 (B  (None, 12, 12, 160)          480       ['conv2d_110[0][0]']          \n"," atchNormalization)                                                                               \n","                                                                                                  \n"," activation_110 (Activation  (None, 12, 12, 160)          0         ['batch_normalization_110[0][0\n"," )                                                                  ]']                           \n","                                                                                                  \n"," conv2d_108 (Conv2D)         (None, 12, 12, 192)          208896    ['block17_8_ac[0][0]']        \n","                                                                                                  \n"," conv2d_111 (Conv2D)         (None, 12, 12, 192)          215040    ['activation_110[0][0]']      \n","                                                                                                  \n"," batch_normalization_108 (B  (None, 12, 12, 192)          576       ['conv2d_108[0][0]']          \n"," atchNormalization)                                                                               \n","                                                                                                  \n"," batch_normalization_111 (B  (None, 12, 12, 192)          576       ['conv2d_111[0][0]']          \n"," atchNormalization)                                                                               \n","                                                                                                  \n"," activation_108 (Activation  (None, 12, 12, 192)          0         ['batch_normalization_108[0][0\n"," )                                                                  ]']                           \n","                                                                                                  \n"," activation_111 (Activation  (None, 12, 12, 192)          0         ['batch_normalization_111[0][0\n"," )                                                                  ]']                           \n","                                                                                                  \n"," block17_9_mixed (Concatena  (None, 12, 12, 384)          0         ['activation_108[0][0]',      \n"," te)                                                                 'activation_111[0][0]']      \n","                                                                                                  \n"," block17_9_conv (Conv2D)     (None, 12, 12, 1088)         418880    ['block17_9_mixed[0][0]']     \n","                                                                                                  \n"," custom_scale_layer_18 (Cus  (None, 12, 12, 1088)         0         ['block17_8_ac[0][0]',        \n"," tomScaleLayer)                                                      'block17_9_conv[0][0]']      \n","                                                                                                  \n"," block17_9_ac (Activation)   (None, 12, 12, 1088)         0         ['custom_scale_layer_18[0][0]'\n","                                                                    ]                             \n","                                                                                                  \n"," conv2d_113 (Conv2D)         (None, 12, 12, 128)          139264    ['block17_9_ac[0][0]']        \n","                                                                                                  \n"," batch_normalization_113 (B  (None, 12, 12, 128)          384       ['conv2d_113[0][0]']          \n"," atchNormalization)                                                                               \n","                                                                                                  \n"," activation_113 (Activation  (None, 12, 12, 128)          0         ['batch_normalization_113[0][0\n"," )                                                                  ]']                           \n","                                                                                                  \n"," conv2d_114 (Conv2D)         (None, 12, 12, 160)          143360    ['activation_113[0][0]']      \n","                                                                                                  \n"," batch_normalization_114 (B  (None, 12, 12, 160)          480       ['conv2d_114[0][0]']          \n"," atchNormalization)                                                                               \n","                                                                                                  \n"," activation_114 (Activation  (None, 12, 12, 160)          0         ['batch_normalization_114[0][0\n"," )                                                                  ]']                           \n","                                                                                                  \n"," conv2d_112 (Conv2D)         (None, 12, 12, 192)          208896    ['block17_9_ac[0][0]']        \n","                                                                                                  \n"," conv2d_115 (Conv2D)         (None, 12, 12, 192)          215040    ['activation_114[0][0]']      \n","                                                                                                  \n"," batch_normalization_112 (B  (None, 12, 12, 192)          576       ['conv2d_112[0][0]']          \n"," atchNormalization)                                                                               \n","                                                                                                  \n"," batch_normalization_115 (B  (None, 12, 12, 192)          576       ['conv2d_115[0][0]']          \n"," atchNormalization)                                                                               \n","                                                                                                  \n"," activation_112 (Activation  (None, 12, 12, 192)          0         ['batch_normalization_112[0][0\n"," )                                                                  ]']                           \n","                                                                                                  \n"," activation_115 (Activation  (None, 12, 12, 192)          0         ['batch_normalization_115[0][0\n"," )                                                                  ]']                           \n","                                                                                                  \n"," block17_10_mixed (Concaten  (None, 12, 12, 384)          0         ['activation_112[0][0]',      \n"," ate)                                                                'activation_115[0][0]']      \n","                                                                                                  \n"," block17_10_conv (Conv2D)    (None, 12, 12, 1088)         418880    ['block17_10_mixed[0][0]']    \n","                                                                                                  \n"," custom_scale_layer_19 (Cus  (None, 12, 12, 1088)         0         ['block17_9_ac[0][0]',        \n"," tomScaleLayer)                                                      'block17_10_conv[0][0]']     \n","                                                                                                  \n"," block17_10_ac (Activation)  (None, 12, 12, 1088)         0         ['custom_scale_layer_19[0][0]'\n","                                                                    ]                             \n","                                                                                                  \n"," conv2d_117 (Conv2D)         (None, 12, 12, 128)          139264    ['block17_10_ac[0][0]']       \n","                                                                                                  \n"," batch_normalization_117 (B  (None, 12, 12, 128)          384       ['conv2d_117[0][0]']          \n"," atchNormalization)                                                                               \n","                                                                                                  \n"," activation_117 (Activation  (None, 12, 12, 128)          0         ['batch_normalization_117[0][0\n"," )                                                                  ]']                           \n","                                                                                                  \n"," conv2d_118 (Conv2D)         (None, 12, 12, 160)          143360    ['activation_117[0][0]']      \n","                                                                                                  \n"," batch_normalization_118 (B  (None, 12, 12, 160)          480       ['conv2d_118[0][0]']          \n"," atchNormalization)                                                                               \n","                                                                                                  \n"," activation_118 (Activation  (None, 12, 12, 160)          0         ['batch_normalization_118[0][0\n"," )                                                                  ]']                           \n","                                                                                                  \n"," conv2d_116 (Conv2D)         (None, 12, 12, 192)          208896    ['block17_10_ac[0][0]']       \n","                                                                                                  \n"," conv2d_119 (Conv2D)         (None, 12, 12, 192)          215040    ['activation_118[0][0]']      \n","                                                                                                  \n"," batch_normalization_116 (B  (None, 12, 12, 192)          576       ['conv2d_116[0][0]']          \n"," atchNormalization)                                                                               \n","                                                                                                  \n"," batch_normalization_119 (B  (None, 12, 12, 192)          576       ['conv2d_119[0][0]']          \n"," atchNormalization)                                                                               \n","                                                                                                  \n"," activation_116 (Activation  (None, 12, 12, 192)          0         ['batch_normalization_116[0][0\n"," )                                                                  ]']                           \n","                                                                                                  \n"," activation_119 (Activation  (None, 12, 12, 192)          0         ['batch_normalization_119[0][0\n"," )                                                                  ]']                           \n","                                                                                                  \n"," block17_11_mixed (Concaten  (None, 12, 12, 384)          0         ['activation_116[0][0]',      \n"," ate)                                                                'activation_119[0][0]']      \n","                                                                                                  \n"," block17_11_conv (Conv2D)    (None, 12, 12, 1088)         418880    ['block17_11_mixed[0][0]']    \n","                                                                                                  \n"," custom_scale_layer_20 (Cus  (None, 12, 12, 1088)         0         ['block17_10_ac[0][0]',       \n"," tomScaleLayer)                                                      'block17_11_conv[0][0]']     \n","                                                                                                  \n"," block17_11_ac (Activation)  (None, 12, 12, 1088)         0         ['custom_scale_layer_20[0][0]'\n","                                                                    ]                             \n","                                                                                                  \n"," conv2d_121 (Conv2D)         (None, 12, 12, 128)          139264    ['block17_11_ac[0][0]']       \n","                                                                                                  \n"," batch_normalization_121 (B  (None, 12, 12, 128)          384       ['conv2d_121[0][0]']          \n"," atchNormalization)                                                                               \n","                                                                                                  \n"," activation_121 (Activation  (None, 12, 12, 128)          0         ['batch_normalization_121[0][0\n"," )                                                                  ]']                           \n","                                                                                                  \n"," conv2d_122 (Conv2D)         (None, 12, 12, 160)          143360    ['activation_121[0][0]']      \n","                                                                                                  \n"," batch_normalization_122 (B  (None, 12, 12, 160)          480       ['conv2d_122[0][0]']          \n"," atchNormalization)                                                                               \n","                                                                                                  \n"," activation_122 (Activation  (None, 12, 12, 160)          0         ['batch_normalization_122[0][0\n"," )                                                                  ]']                           \n","                                                                                                  \n"," conv2d_120 (Conv2D)         (None, 12, 12, 192)          208896    ['block17_11_ac[0][0]']       \n","                                                                                                  \n"," conv2d_123 (Conv2D)         (None, 12, 12, 192)          215040    ['activation_122[0][0]']      \n","                                                                                                  \n"," batch_normalization_120 (B  (None, 12, 12, 192)          576       ['conv2d_120[0][0]']          \n"," atchNormalization)                                                                               \n","                                                                                                  \n"," batch_normalization_123 (B  (None, 12, 12, 192)          576       ['conv2d_123[0][0]']          \n"," atchNormalization)                                                                               \n","                                                                                                  \n"," activation_120 (Activation  (None, 12, 12, 192)          0         ['batch_normalization_120[0][0\n"," )                                                                  ]']                           \n","                                                                                                  \n"," activation_123 (Activation  (None, 12, 12, 192)          0         ['batch_normalization_123[0][0\n"," )                                                                  ]']                           \n","                                                                                                  \n"," block17_12_mixed (Concaten  (None, 12, 12, 384)          0         ['activation_120[0][0]',      \n"," ate)                                                                'activation_123[0][0]']      \n","                                                                                                  \n"," block17_12_conv (Conv2D)    (None, 12, 12, 1088)         418880    ['block17_12_mixed[0][0]']    \n","                                                                                                  \n"," custom_scale_layer_21 (Cus  (None, 12, 12, 1088)         0         ['block17_11_ac[0][0]',       \n"," tomScaleLayer)                                                      'block17_12_conv[0][0]']     \n","                                                                                                  \n"," block17_12_ac (Activation)  (None, 12, 12, 1088)         0         ['custom_scale_layer_21[0][0]'\n","                                                                    ]                             \n","                                                                                                  \n"," conv2d_125 (Conv2D)         (None, 12, 12, 128)          139264    ['block17_12_ac[0][0]']       \n","                                                                                                  \n"," batch_normalization_125 (B  (None, 12, 12, 128)          384       ['conv2d_125[0][0]']          \n"," atchNormalization)                                                                               \n","                                                                                                  \n"," activation_125 (Activation  (None, 12, 12, 128)          0         ['batch_normalization_125[0][0\n"," )                                                                  ]']                           \n","                                                                                                  \n"," conv2d_126 (Conv2D)         (None, 12, 12, 160)          143360    ['activation_125[0][0]']      \n","                                                                                                  \n"," batch_normalization_126 (B  (None, 12, 12, 160)          480       ['conv2d_126[0][0]']          \n"," atchNormalization)                                                                               \n","                                                                                                  \n"," activation_126 (Activation  (None, 12, 12, 160)          0         ['batch_normalization_126[0][0\n"," )                                                                  ]']                           \n","                                                                                                  \n"," conv2d_124 (Conv2D)         (None, 12, 12, 192)          208896    ['block17_12_ac[0][0]']       \n","                                                                                                  \n"," conv2d_127 (Conv2D)         (None, 12, 12, 192)          215040    ['activation_126[0][0]']      \n","                                                                                                  \n"," batch_normalization_124 (B  (None, 12, 12, 192)          576       ['conv2d_124[0][0]']          \n"," atchNormalization)                                                                               \n","                                                                                                  \n"," batch_normalization_127 (B  (None, 12, 12, 192)          576       ['conv2d_127[0][0]']          \n"," atchNormalization)                                                                               \n","                                                                                                  \n"," activation_124 (Activation  (None, 12, 12, 192)          0         ['batch_normalization_124[0][0\n"," )                                                                  ]']                           \n","                                                                                                  \n"," activation_127 (Activation  (None, 12, 12, 192)          0         ['batch_normalization_127[0][0\n"," )                                                                  ]']                           \n","                                                                                                  \n"," block17_13_mixed (Concaten  (None, 12, 12, 384)          0         ['activation_124[0][0]',      \n"," ate)                                                                'activation_127[0][0]']      \n","                                                                                                  \n"," block17_13_conv (Conv2D)    (None, 12, 12, 1088)         418880    ['block17_13_mixed[0][0]']    \n","                                                                                                  \n"," custom_scale_layer_22 (Cus  (None, 12, 12, 1088)         0         ['block17_12_ac[0][0]',       \n"," tomScaleLayer)                                                      'block17_13_conv[0][0]']     \n","                                                                                                  \n"," block17_13_ac (Activation)  (None, 12, 12, 1088)         0         ['custom_scale_layer_22[0][0]'\n","                                                                    ]                             \n","                                                                                                  \n"," conv2d_129 (Conv2D)         (None, 12, 12, 128)          139264    ['block17_13_ac[0][0]']       \n","                                                                                                  \n"," batch_normalization_129 (B  (None, 12, 12, 128)          384       ['conv2d_129[0][0]']          \n"," atchNormalization)                                                                               \n","                                                                                                  \n"," activation_129 (Activation  (None, 12, 12, 128)          0         ['batch_normalization_129[0][0\n"," )                                                                  ]']                           \n","                                                                                                  \n"," conv2d_130 (Conv2D)         (None, 12, 12, 160)          143360    ['activation_129[0][0]']      \n","                                                                                                  \n"," batch_normalization_130 (B  (None, 12, 12, 160)          480       ['conv2d_130[0][0]']          \n"," atchNormalization)                                                                               \n","                                                                                                  \n"," activation_130 (Activation  (None, 12, 12, 160)          0         ['batch_normalization_130[0][0\n"," )                                                                  ]']                           \n","                                                                                                  \n"," conv2d_128 (Conv2D)         (None, 12, 12, 192)          208896    ['block17_13_ac[0][0]']       \n","                                                                                                  \n"," conv2d_131 (Conv2D)         (None, 12, 12, 192)          215040    ['activation_130[0][0]']      \n","                                                                                                  \n"," batch_normalization_128 (B  (None, 12, 12, 192)          576       ['conv2d_128[0][0]']          \n"," atchNormalization)                                                                               \n","                                                                                                  \n"," batch_normalization_131 (B  (None, 12, 12, 192)          576       ['conv2d_131[0][0]']          \n"," atchNormalization)                                                                               \n","                                                                                                  \n"," activation_128 (Activation  (None, 12, 12, 192)          0         ['batch_normalization_128[0][0\n"," )                                                                  ]']                           \n","                                                                                                  \n"," activation_131 (Activation  (None, 12, 12, 192)          0         ['batch_normalization_131[0][0\n"," )                                                                  ]']                           \n","                                                                                                  \n"," block17_14_mixed (Concaten  (None, 12, 12, 384)          0         ['activation_128[0][0]',      \n"," ate)                                                                'activation_131[0][0]']      \n","                                                                                                  \n"," block17_14_conv (Conv2D)    (None, 12, 12, 1088)         418880    ['block17_14_mixed[0][0]']    \n","                                                                                                  \n"," custom_scale_layer_23 (Cus  (None, 12, 12, 1088)         0         ['block17_13_ac[0][0]',       \n"," tomScaleLayer)                                                      'block17_14_conv[0][0]']     \n","                                                                                                  \n"," block17_14_ac (Activation)  (None, 12, 12, 1088)         0         ['custom_scale_layer_23[0][0]'\n","                                                                    ]                             \n","                                                                                                  \n"," conv2d_133 (Conv2D)         (None, 12, 12, 128)          139264    ['block17_14_ac[0][0]']       \n","                                                                                                  \n"," batch_normalization_133 (B  (None, 12, 12, 128)          384       ['conv2d_133[0][0]']          \n"," atchNormalization)                                                                               \n","                                                                                                  \n"," activation_133 (Activation  (None, 12, 12, 128)          0         ['batch_normalization_133[0][0\n"," )                                                                  ]']                           \n","                                                                                                  \n"," conv2d_134 (Conv2D)         (None, 12, 12, 160)          143360    ['activation_133[0][0]']      \n","                                                                                                  \n"," batch_normalization_134 (B  (None, 12, 12, 160)          480       ['conv2d_134[0][0]']          \n"," atchNormalization)                                                                               \n","                                                                                                  \n"," activation_134 (Activation  (None, 12, 12, 160)          0         ['batch_normalization_134[0][0\n"," )                                                                  ]']                           \n","                                                                                                  \n"," conv2d_132 (Conv2D)         (None, 12, 12, 192)          208896    ['block17_14_ac[0][0]']       \n","                                                                                                  \n"," conv2d_135 (Conv2D)         (None, 12, 12, 192)          215040    ['activation_134[0][0]']      \n","                                                                                                  \n"," batch_normalization_132 (B  (None, 12, 12, 192)          576       ['conv2d_132[0][0]']          \n"," atchNormalization)                                                                               \n","                                                                                                  \n"," batch_normalization_135 (B  (None, 12, 12, 192)          576       ['conv2d_135[0][0]']          \n"," atchNormalization)                                                                               \n","                                                                                                  \n"," activation_132 (Activation  (None, 12, 12, 192)          0         ['batch_normalization_132[0][0\n"," )                                                                  ]']                           \n","                                                                                                  \n"," activation_135 (Activation  (None, 12, 12, 192)          0         ['batch_normalization_135[0][0\n"," )                                                                  ]']                           \n","                                                                                                  \n"," block17_15_mixed (Concaten  (None, 12, 12, 384)          0         ['activation_132[0][0]',      \n"," ate)                                                                'activation_135[0][0]']      \n","                                                                                                  \n"," block17_15_conv (Conv2D)    (None, 12, 12, 1088)         418880    ['block17_15_mixed[0][0]']    \n","                                                                                                  \n"," custom_scale_layer_24 (Cus  (None, 12, 12, 1088)         0         ['block17_14_ac[0][0]',       \n"," tomScaleLayer)                                                      'block17_15_conv[0][0]']     \n","                                                                                                  \n"," block17_15_ac (Activation)  (None, 12, 12, 1088)         0         ['custom_scale_layer_24[0][0]'\n","                                                                    ]                             \n","                                                                                                  \n"," conv2d_137 (Conv2D)         (None, 12, 12, 128)          139264    ['block17_15_ac[0][0]']       \n","                                                                                                  \n"," batch_normalization_137 (B  (None, 12, 12, 128)          384       ['conv2d_137[0][0]']          \n"," atchNormalization)                                                                               \n","                                                                                                  \n"," activation_137 (Activation  (None, 12, 12, 128)          0         ['batch_normalization_137[0][0\n"," )                                                                  ]']                           \n","                                                                                                  \n"," conv2d_138 (Conv2D)         (None, 12, 12, 160)          143360    ['activation_137[0][0]']      \n","                                                                                                  \n"," batch_normalization_138 (B  (None, 12, 12, 160)          480       ['conv2d_138[0][0]']          \n"," atchNormalization)                                                                               \n","                                                                                                  \n"," activation_138 (Activation  (None, 12, 12, 160)          0         ['batch_normalization_138[0][0\n"," )                                                                  ]']                           \n","                                                                                                  \n"," conv2d_136 (Conv2D)         (None, 12, 12, 192)          208896    ['block17_15_ac[0][0]']       \n","                                                                                                  \n"," conv2d_139 (Conv2D)         (None, 12, 12, 192)          215040    ['activation_138[0][0]']      \n","                                                                                                  \n"," batch_normalization_136 (B  (None, 12, 12, 192)          576       ['conv2d_136[0][0]']          \n"," atchNormalization)                                                                               \n","                                                                                                  \n"," batch_normalization_139 (B  (None, 12, 12, 192)          576       ['conv2d_139[0][0]']          \n"," atchNormalization)                                                                               \n","                                                                                                  \n"," activation_136 (Activation  (None, 12, 12, 192)          0         ['batch_normalization_136[0][0\n"," )                                                                  ]']                           \n","                                                                                                  \n"," activation_139 (Activation  (None, 12, 12, 192)          0         ['batch_normalization_139[0][0\n"," )                                                                  ]']                           \n","                                                                                                  \n"," block17_16_mixed (Concaten  (None, 12, 12, 384)          0         ['activation_136[0][0]',      \n"," ate)                                                                'activation_139[0][0]']      \n","                                                                                                  \n"," block17_16_conv (Conv2D)    (None, 12, 12, 1088)         418880    ['block17_16_mixed[0][0]']    \n","                                                                                                  \n"," custom_scale_layer_25 (Cus  (None, 12, 12, 1088)         0         ['block17_15_ac[0][0]',       \n"," tomScaleLayer)                                                      'block17_16_conv[0][0]']     \n","                                                                                                  \n"," block17_16_ac (Activation)  (None, 12, 12, 1088)         0         ['custom_scale_layer_25[0][0]'\n","                                                                    ]                             \n","                                                                                                  \n"," conv2d_141 (Conv2D)         (None, 12, 12, 128)          139264    ['block17_16_ac[0][0]']       \n","                                                                                                  \n"," batch_normalization_141 (B  (None, 12, 12, 128)          384       ['conv2d_141[0][0]']          \n"," atchNormalization)                                                                               \n","                                                                                                  \n"," activation_141 (Activation  (None, 12, 12, 128)          0         ['batch_normalization_141[0][0\n"," )                                                                  ]']                           \n","                                                                                                  \n"," conv2d_142 (Conv2D)         (None, 12, 12, 160)          143360    ['activation_141[0][0]']      \n","                                                                                                  \n"," batch_normalization_142 (B  (None, 12, 12, 160)          480       ['conv2d_142[0][0]']          \n"," atchNormalization)                                                                               \n","                                                                                                  \n"," activation_142 (Activation  (None, 12, 12, 160)          0         ['batch_normalization_142[0][0\n"," )                                                                  ]']                           \n","                                                                                                  \n"," conv2d_140 (Conv2D)         (None, 12, 12, 192)          208896    ['block17_16_ac[0][0]']       \n","                                                                                                  \n"," conv2d_143 (Conv2D)         (None, 12, 12, 192)          215040    ['activation_142[0][0]']      \n","                                                                                                  \n"," batch_normalization_140 (B  (None, 12, 12, 192)          576       ['conv2d_140[0][0]']          \n"," atchNormalization)                                                                               \n","                                                                                                  \n"," batch_normalization_143 (B  (None, 12, 12, 192)          576       ['conv2d_143[0][0]']          \n"," atchNormalization)                                                          …
tion_158 (Activation  (None, 12, 12, 256)          0         ['batch_normalization_158[0][0\n"," )                                                                  ]']                           \n","                                                                                                  \n"," activation_161 (Activation  (None, 12, 12, 288)          0         ['batch_normalization_161[0][0\n"," )                                                                  ]']                           \n","                                                                                                  \n"," conv2d_157 (Conv2D)         (None, 5, 5, 384)            884736    ['activation_156[0][0]']      \n","                                                                                                  \n"," conv2d_159 (Conv2D)         (None, 5, 5, 288)            663552    ['activation_158[0][0]']      \n","                                                                                                  \n"," conv2d_162 (Conv2D)         (None, 5, 5, 320)            829440    ['activation_161[0][0]']      \n","                                                                                                  \n"," batch_normalization_157 (B  (None, 5, 5, 384)            1152      ['conv2d_157[0][0]']          \n"," atchNormalization)                                                                               \n","                                                                                                  \n"," batch_normalization_159 (B  (None, 5, 5, 288)            864       ['conv2d_159[0][0]']          \n"," atchNormalization)                                                                               \n","                                                                                                  \n"," batch_normalization_162 (B  (None, 5, 5, 320)            960       ['conv2d_162[0][0]']          \n"," atchNormalization)                                                                               \n","                                                                                                  \n"," activation_157 (Activation  (None, 5, 5, 384)            0         ['batch_normalization_157[0][0\n"," )                                                                  ]']                           \n","                                                                                                  \n"," activation_159 (Activation  (None, 5, 5, 288)            0         ['batch_normalization_159[0][0\n"," )                                                                  ]']                           \n","                                                                                                  \n"," activation_162 (Activation  (None, 5, 5, 320)            0         ['batch_normalization_162[0][0\n"," )                                                                  ]']                           \n","                                                                                                  \n"," max_pooling2d_3 (MaxPoolin  (None, 5, 5, 1088)           0         ['block17_20_ac[0][0]']       \n"," g2D)                                                                                             \n","                                                                                                  \n"," mixed_7a (Concatenate)      (None, 5, 5, 2080)           0         ['activation_157[0][0]',      \n","                                                                     'activation_159[0][0]',      \n","                                                                     'activation_162[0][0]',      \n","                                                                     'max_pooling2d_3[0][0]']     \n","                                                                                                  \n"," conv2d_164 (Conv2D)         (None, 5, 5, 192)            399360    ['mixed_7a[0][0]']            \n","                                                                                                  \n"," batch_normalization_164 (B  (None, 5, 5, 192)            576       ['conv2d_164[0][0]']          \n"," atchNormalization)                                                                               \n","                                                                                                  \n"," activation_164 (Activation  (None, 5, 5, 192)            0         ['batch_normalization_164[0][0\n"," )                                                                  ]']                           \n","                                                                                                  \n"," conv2d_165 (Conv2D)         (None, 5, 5, 224)            129024    ['activation_164[0][0]']      \n","                                                                                                  \n"," batch_normalization_165 (B  (None, 5, 5, 224)            672       ['conv2d_165[0][0]']          \n"," atchNormalization)                                                                               \n","                                                                                                  \n"," activation_165 (Activation  (None, 5, 5, 224)            0         ['batch_normalization_165[0][0\n"," )                                                                  ]']                           \n","                                                                                                  \n"," conv2d_163 (Conv2D)         (None, 5, 5, 192)            399360    ['mixed_7a[0][0]']            \n","                                                                                                  \n"," conv2d_166 (Conv2D)         (None, 5, 5, 256)            172032    ['activation_165[0][0]']      \n","                                                                                                  \n"," batch_normalization_163 (B  (None, 5, 5, 192)            576       ['conv2d_163[0][0]']          \n"," atchNormalization)                                                                               \n","                                                                                                  \n"," batch_normalization_166 (B  (None, 5, 5, 256)            768       ['conv2d_166[0][0]']          \n"," atchNormalization)                                                                               \n","                                                                                                  \n"," activation_163 (Activation  (None, 5, 5, 192)            0         ['batch_normalization_163[0][0\n"," )                                                                  ]']                           \n","                                                                                                  \n"," activation_166 (Activation  (None, 5, 5, 256)            0         ['batch_normalization_166[0][0\n"," )                                                                  ]']                           \n","                                                                                                  \n"," block8_1_mixed (Concatenat  (None, 5, 5, 448)            0         ['activation_163[0][0]',      \n"," e)                                                                  'activation_166[0][0]']      \n","                                                                                                  \n"," block8_1_conv (Conv2D)      (None, 5, 5, 2080)           933920    ['block8_1_mixed[0][0]']      \n","                                                                                                  \n"," custom_scale_layer_30 (Cus  (None, 5, 5, 2080)           0         ['mixed_7a[0][0]',            \n"," tomScaleLayer)                                                      'block8_1_conv[0][0]']       \n","                                                                                                  \n"," block8_1_ac (Activation)    (None, 5, 5, 2080)           0         ['custom_scale_layer_30[0][0]'\n","                                                                    ]                             \n","                                                                                                  \n"," conv2d_168 (Conv2D)         (None, 5, 5, 192)            399360    ['block8_1_ac[0][0]']         \n","                                                                                                  \n"," batch_normalization_168 (B  (None, 5, 5, 192)            576       ['conv2d_168[0][0]']          \n"," atchNormalization)                                                                               \n","                                                                                                  \n"," activation_168 (Activation  (None, 5, 5, 192)            0         ['batch_normalization_168[0][0\n"," )                                                                  ]']                           \n","                                                                                                  \n"," conv2d_169 (Conv2D)         (None, 5, 5, 224)            129024    ['activation_168[0][0]']      \n","                                                                                                  \n"," batch_normalization_169 (B  (None, 5, 5, 224)            672       ['conv2d_169[0][0]']          \n"," atchNormalization)                                                                               \n","                                                                                                  \n"," activation_169 (Activation  (None, 5, 5, 224)            0         ['batch_normalization_169[0][0\n"," )                                                                  ]']                           \n","                                                                                                  \n"," conv2d_167 (Conv2D)         (None, 5, 5, 192)            399360    ['block8_1_ac[0][0]']         \n","                                                                                                  \n"," conv2d_170 (Conv2D)         (None, 5, 5, 256)            172032    ['activation_169[0][0]']      \n","                                                                                                  \n"," batch_normalization_167 (B  (None, 5, 5, 192)            576       ['conv2d_167[0][0]']          \n"," atchNormalization)                                                                               \n","                                                                                                  \n"," batch_normalization_170 (B  (None, 5, 5, 256)            768       ['conv2d_170[0][0]']          \n"," atchNormalization)                                                                               \n","                                                                                                  \n"," activation_167 (Activation  (None, 5, 5, 192)            0         ['batch_normalization_167[0][0\n"," )                                                                  ]']                           \n","                                                                                                  \n"," activation_170 (Activation  (None, 5, 5, 256)            0         ['batch_normalization_170[0][0\n"," )                                                                  ]']                           \n","                                                                                                  \n"," block8_2_mixed (Concatenat  (None, 5, 5, 448)            0         ['activation_167[0][0]',      \n"," e)                                                                  'activation_170[0][0]']      \n","                                                                                                  \n"," block8_2_conv (Conv2D)      (None, 5, 5, 2080)           933920    ['block8_2_mixed[0][0]']      \n","                                                                                                  \n"," custom_scale_layer_31 (Cus  (None, 5, 5, 2080)           0         ['block8_1_ac[0][0]',         \n"," tomScaleLayer)                                                      'block8_2_conv[0][0]']       \n","                                                                                                  \n"," block8_2_ac (Activation)    (None, 5, 5, 2080)           0         ['custom_scale_layer_31[0][0]'\n","                                                                    ]                             \n","                                                                                                  \n"," conv2d_172 (Conv2D)         (None, 5, 5, 192)            399360    ['block8_2_ac[0][0]']         \n","                                                                                                  \n"," batch_normalization_172 (B  (None, 5, 5, 192)            576       ['conv2d_172[0][0]']          \n"," atchNormalization)                                                                               \n","                                                                                                  \n"," activation_172 (Activation  (None, 5, 5, 192)            0         ['batch_normalization_172[0][0\n"," )                                                                  ]']                           \n","                                                                                                  \n"," conv2d_173 (Conv2D)         (None, 5, 5, 224)            129024    ['activation_172[0][0]']      \n","                                                                                                  \n"," batch_normalization_173 (B  (None, 5, 5, 224)            672       ['conv2d_173[0][0]']          \n"," atchNormalization)                                                                               \n","                                                                                                  \n"," activation_173 (Activation  (None, 5, 5, 224)            0         ['batch_normalization_173[0][0\n"," )                                                                  ]']                           \n","                                                                                                  \n"," conv2d_171 (Conv2D)         (None, 5, 5, 192)            399360    ['block8_2_ac[0][0]']         \n","                                                                                                  \n"," conv2d_174 (Conv2D)         (None, 5, 5, 256)            172032    ['activation_173[0][0]']      \n","                                                                                                  \n"," batch_normalization_171 (B  (None, 5, 5, 192)            576       ['conv2d_171[0][0]']          \n"," atchNormalization)                                                                               \n","                                                                                                  \n"," batch_normalization_174 (B  (None, 5, 5, 256)            768       ['conv2d_174[0][0]']          \n"," atchNormalization)                                                                               \n","                                                                                                  \n"," activation_171 (Activation  (None, 5, 5, 192)            0         ['batch_normalization_171[0][0\n"," )                                                                  ]']                           \n","                                                                                                  \n"," activation_174 (Activation  (None, 5, 5, 256)            0         ['batch_normalization_174[0][0\n"," )                                                                  ]']                           \n","                                                                                                  \n"," block8_3_mixed (Concatenat  (None, 5, 5, 448)            0         ['activation_171[0][0]',      \n"," e)                                                                  'activation_174[0][0]']      \n","                                                                                                  \n"," block8_3_conv (Conv2D)      (None, 5, 5, 2080)           933920    ['block8_3_mixed[0][0]']      \n","                                                                                                  \n"," custom_scale_layer_32 (Cus  (None, 5, 5, 2080)           0         ['block8_2_ac[0][0]',         \n"," tomScaleLayer)                                                      'block8_3_conv[0][0]']       \n","                                                                                                  \n"," block8_3_ac (Activation)    (None, 5, 5, 2080)           0         ['custom_scale_layer_32[0][0]'\n","                                                                    ]                             \n","                                                                                                  \n"," conv2d_176 (Conv2D)         (None, 5, 5, 192)            399360    ['block8_3_ac[0][0]']         \n","                                                                                                  \n"," batch_normalization_176 (B  (None, 5, 5, 192)            576       ['conv2d_176[0][0]']          \n"," atchNormalization)                                                                               \n","                                                                                                  \n"," activation_176 (Activation  (None, 5, 5, 192)            0         ['batch_normalization_176[0][0\n"," )                                                                  ]']                           \n","                                                                                                  \n"," conv2d_177 (Conv2D)         (None, 5, 5, 224)            129024    ['activation_176[0][0]']      \n","                                                                                                  \n"," batch_normalization_177 (B  (None, 5, 5, 224)            672       ['conv2d_177[0][0]']          \n"," atchNormalization)                                                                               \n","                                                                                                  \n"," activation_177 (Activation  (None, 5, 5, 224)            0         ['batch_normalization_177[0][0\n"," )                                                                  ]']                           \n","                                                                                                  \n"," conv2d_175 (Conv2D)         (None, 5, 5, 192)            399360    ['block8_3_ac[0][0]']         \n","                                                                                                  \n"," conv2d_178 (Conv2D)         (None, 5, 5, 256)            172032    ['activation_177[0][0]']      \n","                                                                                                  \n"," batch_normalization_175 (B  (None, 5, 5, 192)            576       ['conv2d_175[0][0]']          \n"," atchNormalization)                                                                               \n","                                                                                                  \n"," batch_normalization_178 (B  (None, 5, 5, 256)            768       ['conv2d_178[0][0]']          \n"," atchNormalization)                                                                               \n","                                                                                                  \n"," activation_175 (Activation  (None, 5, 5, 192)            0         ['batch_normalization_175[0][0\n"," )                                                                  ]']                           \n","                                                                                                  \n"," activation_178 (Activation  (None, 5, 5, 256)            0         ['batch_normalization_178[0][0\n"," )                                                                  ]']                           \n","                                                                                                  \n"," block8_4_mixed (Concatenat  (None, 5, 5, 448)            0         ['activation_175[0][0]',      \n"," e)                                                                  'activation_178[0][0]']      \n","                                                                                                  \n"," block8_4_conv (Conv2D)      (None, 5, 5, 2080)           933920    ['block8_4_mixed[0][0]']      \n","                                                                                                  \n"," custom_scale_layer_33 (Cus  (None, 5, 5, 2080)           0         ['block8_3_ac[0][0]',         \n"," tomScaleLayer)                                                      'block8_4_conv[0][0]']       \n","                                                                                                  \n"," block8_4_ac (Activation)    (None, 5, 5, 2080)           0         ['custom_scale_layer_33[0][0]'\n","                                                                    ]                             \n","                                                                                                  \n"," conv2d_180 (Conv2D)         (None, 5, 5, 192)            399360    ['block8_4_ac[0][0]']         \n","                                                                                                  \n"," batch_normalization_180 (B  (None, 5, 5, 192)            576       ['conv2d_180[0][0]']          \n"," atchNormalization)                                                                               \n","                                                                                                  \n"," activation_180 (Activation  (None, 5, 5, 192)            0         ['batch_normalization_180[0][0\n"," )                                                                  ]']                           \n","                                                                                                  \n"," conv2d_181 (Conv2D)         (None, 5, 5, 224)            129024    ['activation_180[0][0]']      \n","                                                                                                  \n"," batch_normalization_181 (B  (None, 5, 5, 224)            672       ['conv2d_181[0][0]']          \n"," atchNormalization)                                                                               \n","                                                                                                  \n"," activation_181 (Activation  (None, 5, 5, 224)            0         ['batch_normalization_181[0][0\n"," )                                                                  ]']                           \n","                                                                                                  \n"," conv2d_179 (Conv2D)         (None, 5, 5, 192)            399360    ['block8_4_ac[0][0]']         \n","                                                                                                  \n"," conv2d_182 (Conv2D)         (None, 5, 5, 256)            172032    ['activation_181[0][0]']      \n","                                                                                                  \n"," batch_normalization_179 (B  (None, 5, 5, 192)            576       ['conv2d_179[0][0]']          \n"," atchNormalization)                                                                               \n","                                                                                                  \n"," batch_normalization_182 (B  (None, 5, 5, 256)            768       ['conv2d_182[0][0]']          \n"," atchNormalization)                                                                               \n","                                                                                                  \n"," activation_179 (Activation  (None, 5, 5, 192)            0         ['batch_normalization_179[0][0\n"," )                                                                  ]']                           \n","                                                                                                  \n"," activation_182 (Activation  (None, 5, 5, 256)            0         ['batch_normalization_182[0][0\n"," )                                                                  ]']                           \n","                                                                                                  \n"," block8_5_mixed (Concatenat  (None, 5, 5, 448)            0         ['activation_179[0][0]',      \n"," e)                                                                  'activation_182[0][0]']      \n","                                                                                                  \n"," block8_5_conv (Conv2D)      (None, 5, 5, 2080)           933920    ['block8_5_mixed[0][0]']      \n","                                                                                                  \n"," custom_scale_layer_34 (Cus  (None, 5, 5, 2080)           0         ['block8_4_ac[0][0]',         \n"," tomScaleLayer)                                                      'block8_5_conv[0][0]']       \n","                                                                                                  \n"," block8_5_ac (Activation)    (None, 5, 5, 2080)           0         ['custom_scale_layer_34[0][0]'\n","                                                                    ]                             \n","                                                                                                  \n"," conv2d_184 (Conv2D)         (None, 5, 5, 192)            399360    ['block8_5_ac[0][0]']         \n","                                                                                                  \n"," batch_normalization_184 (B  (None, 5, 5, 192)            576       ['conv2d_184[0][0]']          \n"," atchNormalization)                                                                               \n","                                                                                                  \n"," activation_184 (Activation  (None, 5, 5, 192)            0         ['batch_normalization_184[0][0\n"," )                                                                  ]']                           \n","                                                                                                  \n"," conv2d_185 (Conv2D)         (None, 5, 5, 224)            129024    ['activation_184[0][0]']      \n","                                                                                                  \n"," batch_normalization_185 (B  (None, 5, 5, 224)            672       ['conv2d_185[0][0]']          \n"," atchNormalization)                                                                               \n","                                                                                                  \n"," activation_185 (Activation  (None, 5, 5, 224)            0         ['batch_normalization_185[0][0\n"," )                                                                  ]']                           \n","                                                                                                  \n"," conv2d_183 (Conv2D)         (None, 5, 5, 192)            399360    ['block8_5_ac[0][0]']         \n","                                                                                                  \n"," conv2d_186 (Conv2D)         (None, 5, 5, 256)            172032    ['activation_185[0][0]']      \n","                                                                                                  \n"," batch_normalization_183 (B  (None, 5, 5, 192)            576       ['conv2d_183[0][0]']          \n"," atchNormalization)                                                                               \n","                                                                                                  \n"," batch_normalization_186 (B  (None, 5, 5, 256)            768       ['conv2d_186[0][0]']          \n"," atchNormalization)                                                                               \n","                                                                                                  \n"," activation_183 (Activation  (None, 5, 5, 192)            0         ['batch_normalization_183[0][0\n"," )                                                                  ]']                           \n","                                                                                                  \n"," activation_186 (Activation  (None, 5, 5, 256)            0         ['batch_normalization_186[0][0\n"," )                                                                  ]']                           \n","                                                                                                  \n"," block8_6_mixed (Concatenat  (None, 5, 5, 448)            0         ['activation_183[0][0]',      \n"," e)                                                                  'activation_186[0][0]']      \n","                                                                                                  \n"," block8_6_conv (Conv2D)      (None, 5, 5, 2080)           933920    ['block8_6_mixed[0][0]']      \n","                                                                                                  \n"," custom_scale_layer_35 (Cus  (None, 5, 5, 2080)           0         ['block8_5_ac[0][0]',         \n"," tomScaleLayer)                                                      'block8_6_conv[0][0]']       \n","                                                                                                  \n"," block8_6_ac (Activation)    (None, 5, 5, 2080)           0         ['custom_scale_layer_35[0][0]'\n","                                                                    ]                             \n","                                                                                                  \n"," conv2d_188 (Conv2D)         (None, 5, 5, 192)            399360    ['block8_6_ac[0][0]']         \n","                                                                                                  \n"," batch_normalization_188 (B  (None, 5, 5, 192)            576       ['conv2d_188[0][0]']          \n"," atchNormalization)                                                                               \n","                                                                                                  \n"," activation_188 (Activation  (None, 5, 5, 192)            0         ['batch_normalization_188[0][0\n"," )                                                                  ]']                           \n","                                                                                                  \n"," conv2d_189 (Conv2D)         (None, 5, 5, 224)            129024    ['activation_188[0][0]']      \n","                                                                                                  \n"," batch_normalization_189 (B  (None, 5, 5, 224)            672       ['conv2d_189[0][0]']          \n"," atchNormalization)                                                                               \n","                                                                                                  \n"," activation_189 (Activation  (None, 5, 5, 224)            0         ['batch_normalization_189[0][0\n"," )                                                                  ]']                           \n","                                                                                                  \n"," conv2d_187 (Conv2D)         (None, 5, 5, 192)            399360    ['block8_6_ac[0][0]']         \n","                                                                                                  \n"," conv2d_190 (Conv2D)         (None, 5, 5, 256)            172032    ['activation_189[0][0]']      \n","                                                                                                  \n"," batch_normalization_187 (B  (None, 5, 5, 192)            576       ['conv2d_187[0][0]']          \n"," atchNormalization)                                                                               \n","                                                                                                  \n"," batch_normalization_190 (B  (None, 5, 5, 256)            768       ['conv2d_190[0][0]']          \n"," atchNormalization)                                                                               \n","                                                                                                  \n"," activation_187 (Activation  (None, 5, 5, 192)            0         ['batch_normalization_187[0][0\n"," )                                                                  ]']                           \n","                                                                                                  \n"," activation_190 (Activation  (None, 5, 5, 256)            0         ['batch_normalization_190[0][0\n"," )                                                                  ]']                           \n","                                                                                                  \n"," block8_7_mixed (Concatenat  (None, 5, 5, 448)            0         ['activation_187[0][0]',      \n"," e)                                                                  'activation_190[0][0]']      \n","                                                                                                  \n"," block8_7_conv (Conv2D)      (None, 5, 5, 2080)           933920    ['block8_7_mixed[0][0]']      \n","                                                                                                  \n"," custom_scale_layer_36 (Cus  (None, 5, 5, 2080)           0         ['block8_6_ac[0][0]',         \n"," tomScaleLayer)                                                      'block8_7_conv[0][0]']       \n","                                                                                                  \n"," block8_7_ac (Activation)    (None, 5, 5, 2080)           0         ['custom_scale_layer_36[0][0]'\n","                                                                    ]                             \n","                                                                                                  \n"," conv2d_192 (Conv2D)         (None, 5, 5, 192)            399360    ['block8_7_ac[0][0]']         \n","                                                                                                  \n"," batch_normalization_192 (B  (None, 5, 5, 192)            576       ['conv2d_192[0][0]']          \n"," atchNormalization)                                                                               \n","                                                                                                  \n"," activation_192 (Activation  (None, 5, 5, 192)            0         ['batch_normalization_192[0][0\n"," )                                                                  ]']                           \n","                                                                                                  \n"," conv2d_193 (Conv2D)         (None, 5, 5, 224)            129024    ['activation_192[0][0]']      \n","                                                                                                  \n"," batch_normalization_193 (B  (None, 5, 5, 224)            672       ['conv2d_193[0][0]']          \n"," atchNormalization)                                                                               \n","                                                                                                  \n"," activation_193 (Activation  (None, 5, 5, 224)            0         ['batch_normalization_193[0][0\n"," )                                                                  ]']                           \n","                                                                                                  \n"," conv2d_191 (Conv2D)         (None, 5, 5, 192)            399360    ['block8_7_ac[0][0]']         \n","                                                                                                  \n"," conv2d_194 (Conv2D)         (None, 5, 5, 256)            172032    ['activation_193[0][0]']      \n","                                                                                                  \n"," batch_normalization_191 (B  (None, 5, 5, 192)            576       ['conv2d_191[0][0]']          \n"," atchNormalization)                                                                               \n","                                                                                                  \n"," batch_normalization_194 (B  (None, 5, 5, 256)            768       ['conv2d_194[0][0]']          \n"," atchNormalization)                                                                               \n","                                                                                                  \n"," activation_191 (Activation  (None, 5, 5, 192)            0         ['batch_normalization_191[0][0\n"," )                                                                  ]']                           \n","                                                                                                  \n"," activation_194 (Activation  (None, 5, 5, 256)            0         ['batch_normalization_194[0][0\n"," )                                                                  ]']                           \n","                                                                                                  \n"," block8_8_mixed (Concatenat  (None, 5, 5, 448)            0         ['activation_191[0][0]',      \n"," e)                                                                  'activation_194[0][0]']      \n","                                                                                                  \n"," block8_8_conv (Conv2D)      (None, 5, 5, 2080)           933920    ['block8_8_mixed[0][0]']      \n","                                                                                                  \n"," custom_scale_layer_37 (Cus  (None, 5, 5, 2080)           0         ['block8_7_ac[0][0]',         \n"," tomScaleLayer)                                                      'block8_8_conv[0][0]']       \n","                                                                                                  \n"," block8_8_ac (Activation)    (None, 5, 5, 2080)           0         ['custom_scale_layer_37[0][0]'\n","                                                                    ]                             \n","                                                                                                  \n"," conv2d_196 (Conv2D)         (None, 5, 5, 192)            399360    ['block8_8_ac[0][0]']         \n","                                                                                                  \n"," batch_normalization_196 (B  (None, 5, 5, 192)            576       ['conv2d_196[0][0]']          \n"," atchNormalization)                                                                               \n","                                                                                                  \n"," activation_196 (Activation  (None, 5, 5, 192)            0         ['batch_normalization_196[0][0\n"," )                                                                  ]']                           \n","                                                                                                  \n"," conv2d_197 (Conv2D)         (None, 5, 5, 224)            129024    ['activation_196[0][0]']      \n","                                                                                                  \n"," batch_normalization_197 (B  (None, 5, 5, 224)            672       ['conv2d_197[0][0]']          \n"," atchNormalization)                                                                               \n","                                                                                                  \n"," activation_197 (Activation  (None, 5, 5, 224)            0         ['batch_normalization_197[0][0\n"," )                                                                  ]']                           \n","                                                                                                  \n"," conv2d_195 (Conv2D)         (None, 5, 5, 192)            399360    ['block8_8_ac[0][0]']         \n","                                                                                                  \n"," conv2d_198 (Conv2D)         (None, 5, 5, 256)            172032    ['activation_197[0][0]']      \n","                                                                                                  \n"," batch_normalization_195 (B  (None, 5, 5, 192)            576       ['conv2d_195[0][0]']          \n"," atchNormalization)                                                                               \n","                                                                                                  \n"," batch_normalization_198 (B  (None, 5, 5, 256)            768       ['conv2d_198[0][0]']          \n"," atchNormalization)                                                                               \n","                                                                                                  \n"," activation_195 (Activation  (None, 5, 5, 192)            0         ['batch_normalization_195[0][0\n"," )                                                                  ]']                           \n","                                                                                                  \n"," activation_198 (Activation  (None, 5, 5, 256)            0         ['batch_normalization_198[0][0\n"," )                                                                  ]']                           \n","                                                                                                  \n"," block8_9_mixed (Concatenat  (None, 5, 5, 448)            0         ['activation_195[0][0]',      \n"," e)                                                                  'activation_198[0][0]']      \n","                                                                                                  \n"," block8_9_conv (Conv2D)      (None, 5, 5, 2080)           933920    ['block8_9_mixed[0][0]']      \n","                                                                                                  \n"," custom_scale_layer_38 (Cus  (None, 5, 5, 2080)           0         ['block8_8_ac[0][0]',         \n"," tomScaleLayer)                                                      'block8_9_conv[0][0]']       \n","                                                                                                  \n"," block8_9_ac (Activation)    (None, 5, 5, 2080)           0         ['custom_scale_layer_38[0][0]'\n","                                                                    ]                             \n","                                                                                                  \n"," conv2d_200 (Conv2D)         (None, 5, 5, 192)            399360    ['block8_9_ac[0][0]']         \n","                                                                                                  \n"," batch_normalization_200 (B  (None, 5, 5, 192)            576       ['conv2d_200[0][0]']          \n"," atchNormalization)                                                                               \n","                                                                                                  \n"," activation_200 (Activation  (None, 5, 5, 192)            0         ['batch_normalization_200[0][0\n"," )                                                                  ]']                           \n","                                                                                                  \n"," conv2d_201 (Conv2D)         (None, 5, 5, 224)            129024    ['activation_200[0][0]']      \n","                                                                                                  \n"," batch_normalization_201 (B  (None, 5, 5, 224)            672       ['conv2d_201[0][0]']          \n"," atchNormalization)                                                                               \n","                                                                                                  \n"," activation_201 (Activation  (None, 5, 5, 224)            0         ['batch_normalization_201[0][0\n"," )                                                                  ]']                           \n","                                                                                                  \n"," conv2d_199 (Conv2D)         (None, 5, 5, 192)            399360    ['block8_9_ac[0][0]']         \n","                                                                                                  \n"," conv2d_202 (Conv2D)         (None, 5, 5, 256)            172032    ['activation_201[0][0]']      \n","                                                                                                  \n"," batch_normalization_199 (B  (None, 5, 5, 192)            576       ['conv2d_199[0][0]']          \n"," atchNormalization)                                                                               \n","                                                                                                  \n"," batch_normalization_202 (B  (None, 5, 5, 256)            768       ['conv2d_202[0][0]']          \n"," atchNormalization)                                                                               \n","                                                                                                  \n"," activation_199 (Activation  (None, 5, 5, 192)            0         ['batch_normalization_199[0][0\n"," )                                                                  ]']                           \n","                                                                                                  \n"," activation_202 (Activation  (None, 5, 5, 256)            0         ['batch_normalization_202[0][0\n"," )                                                                  ]']                           \n","                                                                                                  \n"," block8_10_mixed (Concatena  (None, 5, 5, 448)            0         ['activation_199[0][0]',      \n"," te)                                                                 'activation_202[0][0]']      \n","                                                                                                  \n"," block8_10_conv (Conv2D)     (None, 5, 5, 2080)           933920    ['block8_10_mixed[0][0]']     \n","                                                                                                  \n"," custom_scale_layer_39 (Cus  (None, 5, 5, 2080)           0         ['block8_9_ac[0][0]',         \n"," tomScaleLayer)                                                      'block8_10_conv[0][0]']      \n","                                                                                                  \n"," conv_7b (Conv2D)            (None, 5, 5, 1536)           3194880   ['custom_scale_layer_39[0][0]'\n","                                                                    ]                             \n","                                                                                                  \n"," conv_7b_bn (BatchNormaliza  (None, 5, 5, 1536)           4608      ['conv_7b[0][0]']             \n"," tion)                                                                                            \n","                                                                                                  \n"," conv_7b_ac (Activation)     (None, 5, 5, 1536)           0         ['conv_7b_bn[0][0]']          \n","                                                                                                  \n"," global_average_pooling2d (  (None, 1536)                 0         ['conv_7b_ac[0][0]']          \n"," GlobalAveragePooling2D)                                                                          \n","                                                                                                  \n"," dense (Dense)               (None, 512)                  786944    ['global_average_pooling2d[0][\n","                                                                    0]']                          \n","                                                                                                  \n"," dropout (Dropout)           (None, 512)                  0         ['dense[0][0]']               \n","                                                                                                  \n"," dense_1 (Dense)             (None, 1)                    513       ['dropout[0][0]']             \n","                                                                                                  \n","==================================================================================================\n","Total params: 55124193 (210.28 MB)\n","Trainable params: 787457 (3.00 MB)\n","Non-trainable params: 54336736 (207.28 MB)\n","___________________________
…
